kees_code/k_folding_tests/models/SR_DF/onnx_model_test.onnx (onnx, 56979 bytes, 7 tensors)

StatefulPartitionedCall/sequential/dense_3/MatMul/ReadVariableOp:0 f4 [64, 1]
000000 12 36 e9 be 9c 90 87 3e 70 e7 58 3e 66 e3 f6 3e
       -0.45549065 0.26477516 0.21182036 0.48220366
000010 49 be 65 be 35 48 2e 3d 9a ed 40 be 5c 31 58 3e
       -0.2243587 0.04254933 -0.18840638 0.21112579
000020 29 e2 5d 3e 36 fb 55 3d ca 63 be be 0e af 3b be
       0.21668305 0.052241527 -0.37185508 -0.18328497
000030 07 e1 4c 3e 2a ed 45 3e ef a6 e9 be c9 95 5c be
       0.20007716 0.19328752 -0.45635173 -0.21541514
000040 5c fd e1 3e f8 c4 86 be 45 c6 ec 3e 04 63 91 be
       0.4413861 -0.2632215 0.46245018 -0.28395855
000050 bc 1d 21 be f2 6d 8b be 25 27 b9 be f9 b7 b2 3e
       -0.15733999 -0.2723232 -0.36162677 0.34905985
000060 ac bd 34 be 49 f7 64 3e ac f0 69 be d8 32 4d be
       -0.17650479 0.22359957 -0.22845715 -0.20038927
000070 7d 74 c8 be 52 aa 9b be f8 34 7f be cf f4 45 3e
       -0.39151374 -0.30403382 -0.2492255 0.19331668
000080 84 15 b3 be f4 d8 c5 be 64 fc 80 bd 55 f7 52 be
       -0.34977353 -0.38642085 -0.0629814 -0.20602162
000090 d7 af 01 3e 3e 0c 88 3e 55 83 49 3e b6 cd c4 3e
       0.12664734 0.2657184 0.19679005 0.38438195
0000a0 97 2d d3 be ea 0e 8d 3e 69 b9 b6 be 6b 60 d2 be
       -0.4124572 0.2755044 -0.35688332 -0.41089186
0000b0 97 f4 e0 3e a0 44 14 3e 7b 77 ac 3e c9 90 2f 3e
       0.43936607 0.14479303 0.33684906 0.17145075
0000c0 85 c4 9e be c3 4f dc be e5 2d b6 3e dc b3 a1 be
       -0.31009308 -0.43029603 0.3558189 -0.31582534
0000d0 06 74 b0 be 66 b8 86 3e de d7 78 be 65 4b bb be
       -0.3446352 0.2631256 -0.24301097 -0.3658096
0000e0 de 91 95 be dc 3e fc bd d2 d4 43 3e c5 8e 3e be
       -0.2921285 -0.12316677 0.19124153 -0.1860915
0000f0 3b 51 5d 3e 72 89 ad be fc e0 58 be 88 b4 4c 3e
       0.21613018 -0.33893925 -0.21179575 0.19990742

StatefulPartitionedCall/sequential/dense_2/MatMul/ReadVariableOp:0 f4 [64, 64]
000000 f1 80 09 3d a2 44 02 bc ee 28 84 3d 9d 57 99 bd
       0.033570234 -0.007950934 0.06453119 -0.07487414
000010 00 cb 74 bd d0 4f 22 3e 77 d5 b5 3d f0 0d af bd
       -0.05976391 0.15850759 0.08878606 -0.0854758
000020 f5 53 c3 bd c2 43 00 be 3f 83 01 3d 38 a4 1f 3d
       -0.09537498 -0.12525848 0.031619307 0.03897497
000030 b2 cc d7 bd cb 8c 26 be ba b7 9c 3d ba 16 20 bd
       -0.105370894 -0.16264646 0.076522306 -0.039084174
000040 1b 26 bf bd 13 2e 94 bd cc 19 45 be da 71 fd 3d
       -0.0933344 -0.072353505 -0.19248122 0.12375231
000050 98 ed 57 bd e1 97 86 3e 3f 51 39 3e 23 11 04 3e
       -0.05271682 0.2628775 0.18097399 0.12897162
000060 dc bd 48 3e 28 68 52 be 52 d7 d9 3d 64 4e f4 3d
       0.19603676 -0.20547545 0.10636772 0.11929014
000070 04 8e fa bd 0e 30 de 3c fe 7a 06 bd 10 50 29 be
       -0.122341186 0.027122524 -0.03283214 -0.16534448
000080 13 bf 8a 3e ab bf c4 3d d0 db 37 bc f5 a7 6f 3c
       0.27098903 0.0960687 -0.011221841 0.014627446
000090 1a 09 05 be 3a d5 bc 3d 90 55 2b be 83 46 a1 3d
       -0.12991753 0.09220357 -0.16731858 0.07874777
0000a0 19 56 fe 3d b1 73 8b bd 81 56 c6 3d 9e 14 39 3d
       0.124187656 -0.06809176 0.09684468 0.045185678
0000b0 aa 59 e0 bc 33 03 0d 3b d9 1a a2 3d 94 ab 94 bd
       -0.027386505 0.00215168 0.07915277 -0.072592884
0000c0 87 6f 59 3e 11 77 ce bc d9 23 04 bd f0 97 9a 3d
       0.2123395 -0.02520326 -0.03226075 0.07548511
0000d0 34 0b 66 3e b6 1c d1 bd 55 ed 1f 3e 56 02 9d bd
       0.22465211 -0.10210554 0.15617879 -0.07666461
0000e0 dc df 0c 3d 96 89 24 be e0 f9 8b be 5a e9 3b 3e
       0.034393176 -0.1606811 -0.27339077 0.18350735
0000f0 aa 04 24 be 89 a5 78 3e 87 d3 3e 3e 35 6a dc 3d
       -0.16017404 0.24281897 0.18635379 0.10762445
000100 a6 53 24 3e 83 c3 61 3d 4b ad b0 bc a8 80 70 be
       0.16047534 0.055118095 -0.021567008 -0.23486578
000110 d0 f0 92 3e 12 7d 39 be ac e2 91 bd ac c1 00 be
       0.2869935 -0.18114117 -0.07123312 -0.1257388
000120 ef b7 0f 3e 70 97 9c 3d bc 71 03 3e 55 25 f0 3d
       0.14035009 0.07646072 0.12836355 0.117258705
000130 a7 f2 28 be 0f 4c e0 bd 4c a8 28 3e ae 1c 8b 3d
       -0.16498815 -0.10952007 0.1647045 0.067925796
000140 a6 53 ac bb b2 f0 dd 3c b1 ce 0e be bf dc 0e be
       -0.005258995 0.027092312 -0.13946034 -0.13951395
000150 99 49 9b 3d db e8 b5 3d d0 5a 34 3e cc 78 cf bd
       0.07582397 0.08882304 0.17612767 -0.10130462
000160 91 b5 6d 3e 8a 52 03 3d c7 c9 18 3e 75 25 39 be
       0.23213793 0.032061137 0.14920722 -0.18080695
000170 eb 51 63 bd fe 04 38 bd c2 4e f8 bd 07 4a 05 bd
       -0.055498045 -0.044926636 -0.12124397 -0.0325413
000180 df b1 f7 bd 7a 66 eb 3c a1 7b ad bd d6 80 84 3e
       -0.12094473 0.028735388 -0.08470846 0.25879544
000190 58 5d a4 bd b9 ad 14 bc 4e 86 3d be f1 eb 8c 3d
       -0.080256164 -0.009074622 -0.18508264 0.0688094
0001a0 b4 d7 d1 bd e4 5e c4 bd ac 8e a9 3c 99 82 ae bd
       -0.1024622 -0.095884115 0.020697914 -0.08521003
0001b0 36 76 8c be 4c 21 74 bd 3d aa f3 bd 2f 16 18 3e
       -0.27433938 -0.059602067 -0.11897705 0.14852212
0001c0 c2 cd 66 bc d9 76 04 3b 29 36 6d bd 6c e9 b0 bd
       -0.014087142 0.002021244 -0.05791298 -0.08638272
0001d0 30 93 0f be 26 6f a4 3d 8d e0 82 bd 90 81 8a 3d
       -0.14020991 0.080290124 -0.06390486 0.06762993
0001e0 ab 47 ec 3c 43 47 47 3e 6d 02 71 be e4 ef 7e 3e
       0.028842768 0.19460778 -0.23536082 0.24896199
0001f0 8b f8 a8 3d a1 3e ad 3d 52 d7 3d bd 2f 91 24 bd
       0.08250531 0.08459211 -0.046347924 -0.04017752
000200 b4 79 f4 3d a9 fd 2c bd 2a cf 17 be 7c 2e 8e bd
       0.119372755 -0.042234097 -0.1482512 -0.0694246
000210 97 2b 90 3e 87 ca d6 bd 84 37 eb 3d fd d0 13 3e
       0.28158256 -0.10487848 0.11485198 0.14435191
000220 d2 be 6d bd 42 42 85 3d 3f 71 db bc 28 e8 16 3e
       -0.05804331 0.06506778 -0.026787398 0.14736998
000230 78 ae 40 be a0 b8 25 3e 28 98 04 3d 44 b1 98 3d
       -0.18816555 0.1618371 0.03237167 0.07455686
000240 9c 28 f3 bd bd fe 37 bc d3 49 46 3c a7 e7 14 3e
       -0.1187298 -0.011230168 0.012102562 0.14541493
000250 9f 88 8c 3d b0 38 10 3c d8 b1 37 3e 08 cc ca 3d
       0.06861996 0.008802578 0.17938936 0.09902197
000260 3f 14 0d 3e cd 7f a7 bd 26 ee 6b 3e 47 d6 4d 3d
       0.13777255 -0.08178673 0.23040065 0.05025318
000270 66 80 8b 3e bd 0e 6a 3d dd 0b 9b 3e 85 b3 3b 3e
       0.27246398 0.05714296 0.30282488 0.183302
000280 0d 54 1c 3e 4f 69 be 3d 6a 84 09 3e e5 e4 4a 3e
       0.15266438 0.0929743 0.13429418 0.19813879
000290 41 e8 2f be 6c 03 31 be 9d 75 ef 3d 8e b7 e4 3d
       -0.17178442 -0.17286462 0.11692355 0.11167823
0002a0 13 5f d6 3d 2b a4 2c 3d 33 e9 e5 bd 16 4c 01 3e
       0.10467353 0.04214875 -0.1122612 0.1262668
0002b0 39 93 60 bc 34 b0 e6 bd 58 81 ca bc a3 91 a9 3d
       -0.013706976 -0.11264077 -0.024719879 0.08279731
0002c0 4d 9e 9c 3c cf 47 30 3e 9d 90 e1 3d 50 aa 93 3e
       0.019118452 0.17214893 0.11013911 0.28840876
0002d0 b0 d5 d3 bd 0c 9d 49 be a0 1c 11 3e ce b2 5d 3e
       -0.10343492 -0.19688815 0.14171076 0.2165024
0002e0 06 3f 87 bd 76 27 28 3e c0 87 5d 3d 2a b0 16 3e
       -0.06603818 0.16421303 0.05408454 0.14715639
0002f0 ae 9b a3 bd 1e 5c d4 bd 80 d5 d2 bd bd 60 17 bd
       -0.07988678 -0.103691325 -0.10294628 -0.03695749
000300 bb 2c 0e be 2d 07 df bc 71 72 e4 bd 19 78 21 3e
       -0.13884251 -0.027225101 -0.111546405 0.1576847
000310 66 ce 13 3d 6f 42 6d bd 9b 1d c9 bd 94 c1 48 3e
       0.03608551 -0.057924684 -0.098201 0.19605094
000320 25 da 25 3d 5a 80 85 bc 2d 61 2b be 97 59 1a 3e
       0.040491242 -0.016296554 -0.16736288 0.15073238
000330 37 70 05 3e 40 ca 25 3e 7b 27 56 be fc dc 4a 3d
       0.13031088 0.16190434 -0.20913498 0.049527153
000340 3d 63 3f be 3c 5b 5d bd 5a 4e 09 be a4 60 e8 3d
       -0.186902 -0.054042086 -0.13408795 0.11346558
000350 52 8a 8a 3d cd 1a 5a 3e 5d fd 95 bd 4d 55 9a bd
       0.06764664 0.21299286 -0.07323716 -0.07535801
000360 73 c3 34 3e 87 1b 94 3d 1b 17 00 bd 09 c3 25 be
       0.17652683 0.07231813 -0.031272035 -0.16187681
000370 8e c5 64 be d2 9f 04 3e 8e 25 19 3e af 86 ab bd
       -0.22340986 0.12951592 0.14955732 -0.08375298
000380 61 a4 fb bd 1d cc 30 bc ba 3c 3e 3e 93 1b 0f 3e
       -0.12287212 -0.010790852 0.18577853 0.13975362
000390 ab a8 53 3e 41 de 2c 3e 35 a1 22 be c8 8e 8a 3d
       0.2066981 0.16881658 -0.15881808 0.067655146
0003a0 44 f5 44 3d 16 97 5f 3e 1d bd a7 3d 3d 3a ed bc
       0.048085466 0.21834978 0.08190367 -0.028958434
0003b0 c6 db b2 bd 5b b0 04 bd b5 6f d7 bd 89 79 98 bd
       -0.08733325 -0.03239475 -0.10519353 -0.07445056
0003c0 2b ef 74 bd 5e 12 fd bd e1 ac 5d 3d c3 01 fc bd
       -0.0597984 -0.12357019 0.05411995 -0.123050235
0003d0 70 0a 0a 3d 1b 46 08 bc 8c c0 11 3d 35 c8 36 be
       0.03370136 -0.008317496 0.035584018 -0.1784981
0003e0 46 5e 5f 3e 56 c7 23 be ab e8 6c 3e aa fb 11 bd
       0.21813306 -0.1599401 0.23135631 -0.035640396
0003f0 03 28 36 3e 38 c1 4d 3d a1 b3 72 be fd c2 e1 bc
       0.17788701 0.050233096 -0.23701335 -0.027558798

StatefulPartitionedCall/sequential/dense_2/BiasAdd/ReadVariableOp:0 f4 [64]
000000 e0 44 db 3a f2 fe 91 3d 48 2c a4 3d 57 db 95 3d
       0.00167289 0.07128705 0.080162585 0.073172264
000010 fc b0 ca 3b 5a c8 38 bc 6b 7c d7 3c d1 5b 96 3d
       0.006185649 -0.011278236 0.026304444 0.07341731
000020 a4 8d bb 3d 55 ac 09 3c 0c 55 cc 3c 21 26 93 bb
       0.09157875 0.008402904 0.024942897 -0.0044906293
000030 6e ff 55 3c 70 a7 77 3d 4d c9 95 3c 23 f1 bb 3b
       0.013061387 0.060462415 0.018284464 0.005735533
000040 6d 53 91 3d 60 f0 29 3c 04 d2 dc 3d 8a 83 ae 3c
       0.0709599 0.010372251 0.10782245 0.021302957
000050 1b 12 84 ba b0 f2 9f 38 03 16 e2 ba 0a c7 45 3d
       -0.0010076197 7.626915e-05 -0.0017248992 0.04828552
000060 df b8 ce 3c c2 73 9a 3d cf 75 0a 3d 55 d8 39 bd
       0.025234638 0.0754161 0.033803757 -0.045372326
000070 cf 30 f1 3c 47 2e 20 bd 6e 59 04 3d 98 ba 23 bc
       0.029442219 -0.039106634 0.03231185 -0.009993218
000080 e2 b2 0e 3c 90 97 73 3a 40 60 7e bc 70 72 b3 bb
       0.008709641 0.0009292299 -0.0155258775 -0.0054762885
000090 d1 30 9d 3d 09 4e fa 3c 17 ab f5 bb 8a a3 5b 3d
       0.076753266 0.030554788 -0.007497202 0.05362276
0000a0 82 6b 73 bc e1 0c f3 3d 75 63 90 bc 64 1f cc 3c
       -0.014857175 0.11867691 -0.01762555 0.024917312
0000b0 9f cd 28 3d 8f 20 14 3d f6 2c 6c 3d e8 77 be 3c
       0.04121172 0.036163863 0.057660066 0.023250535
0000c0 8e e3 58 bc 9e 2e 42 3b 71 90 8e 3d 0e 93 00 3d
       -0.013237847 0.0029629837 0.06961144 0.031390242
0000d0 f5 db 04 bc df 0f 99 3d a1 2f 91 bb 80 f8 ab bc
       -0.0081090825 0.0747373 -0.0044307266 -0.020992517
0000e0 50 78 b4 3c 41 f0 15 3d 33 4f ad 3d 3e 8c f9 3b
       0.022030026 0.036606077 0.08462372 0.007615595
0000f0 29 db b3 3d 54 78 95 ba 59 32 70 bc 79 d7 ba bc
       0.08782036 -0.0011403658 -0.014660441 -0.022807823

StatefulPartitionedCall/sequential/dense_1/MatMul/ReadVariableOp:0 f4 [64, 64]
000000 32 57 cf 3d 1f 19 6c 3e a3 d6 0e bd 8d 61 94 be
       0.10124053 0.23056458 -0.034872662 -0.28980675
000010 88 42 47 3e d2 67 a7 be 62 ab ae 3c 4c 93 1f 3e
       0.19458973 -0.32696396 0.021321956 0.15583533
000020 02 e9 06 3d 12 8b 54 be 82 65 4b bd 9c 25 af 3e
       0.032937057 -0.20756176 -0.049657352 0.3420838
000030 48 c5 00 be d5 5c b5 3d 5a 1d c3 3e 8b 7f fe bd
       -0.12575257 0.08855597 0.3810833 -0.12426671
000040 8f b8 48 be 9d df f3 3d cc dd eb 3e 10 64 a4 3c
       -0.19601654 0.11907885 0.46067655 0.020067245
000050 5e 6b 58 3e 1b 8d e7 bc f6 47 6f 3e fa 34 b7 be
       0.21134707 -0.028265527 0.23367295 -0.35782605
000060 ff 61 98 3d 1b 51 9b 3d c6 13 18 bd cf 82 21 3e
       0.07440566 0.07583829 -0.037128232 0.15772556
000070 e0 5c 09 3e b7 1d b1 3e cb b6 7c 3e 41 8c e5 bc
       0.13414335 0.34592983 0.24679105 -0.02802098
000080 50 9d 9b 3e 99 f8 97 bc 57 91 5b bc 9f 05 61 bc
       0.30393457 -0.018551158 -0.013401351 -0.01373425
000090 ee 58 8d 3d ab f4 4a be d7 3f 52 3e a5 21 fd 3d
       0.069017276 -0.19819896 0.20532165 0.12359933
0000a0 a9 ce b7 be be 36 e1 bc b2 65 d8 bc 61 ab 82 3e
       -0.35899857 -0.027491923 -0.02641568 0.25521377
0000b0 02 be ef 3d d1 1e 20 3e 42 7f 9e 3e f2 6b 46 3e
       0.11706163 0.15636756 0.30956465 0.19377115
0000c0 2c 09 65 3e 6c 08 64 be e2 d1 b8 3e 96 36 47 bd
       0.2236678 -0.22268838 0.36097628 -0.04863604
0000d0 9e fa 86 bd 4c dc 72 bc 69 78 93 be c6 31 e1 bd
       -0.0659077 -0.014823031 -0.28802803 -0.10995822
0000e0 20 39 94 be 93 e9 ea 3d ca fa 11 bd ed e2 c7 3e
       -0.28949833 0.11470332 -0.03563956 0.39040318
0000f0 1c 6a 69 3c 9e cf dc bc 0f 01 a2 be 45 5e b0 bd
       0.01424649 -0.026954468 -0.31641433 -0.086117305
000100 1c 6a 4f bd 26 9f 56 3c e1 96 95 be b0 d9 ab 3d
       -0.050638303 0.013099467 -0.29216674 0.0839113
000110 6e da 8f bd 8b d9 d4 3c 1f e7 29 be 00 d7 d9 bd
       -0.07024084 0.025982639 -0.16592072 -0.10636711
000120 2b 5c e5 bd f5 d2 2e 3d b4 d6 31 be 3a be 25 3e
       -0.1119922 0.042681653 -0.17367059 0.16185847
000130 bc 23 46 3e a3 8a b6 bd 51 b5 7f bd d8 28 29 be
       0.19349569 -0.089131616 -0.062428776 -0.16519487
000140 20 57 22 be 0c 0a bc 3d f9 88 80 bc 9d 4e ed bd
       -0.15853548 0.09181604 -0.015690314 -0.1158726
000150 6e 71 04 be 28 4d 82 bd a0 44 54 3e 12 80 b5 bd
       -0.12933895 -0.06362373 0.20729303 -0.08862318
000160 50 71 c3 bd 28 23 ef 3d 21 63 df bc af 0b f1 bc
       -0.09543097 0.116766274 -0.027268948 -0.029424516
000170 f7 04 8a be f6 ff 62 be 9b 3f 32 be 3d 3b bd bd
       -0.26956913 -0.22167954 -0.17407076 -0.092398144
000180 97 af 44 3e 72 6f 36 bc 1c 49 8f bd f2 88 52 be
       0.19207607 -0.011134969 -0.069963664 -0.20560053
000190 62 0f e4 3b 64 0a e7 bc 8f ea 97 bd bd 7d 49 be
       0.0069598416 -0.028203197 -0.074177854 -0.19676872
0001a0 0c 8d 80 bb a4 82 84 3d 71 39 8d bd 25 5e 6e be
       -0.003923064 0.0647023 -0.06895722 -0.23278101
0001b0 af 16 a4 be 2e dd 16 3e f0 66 8b bc bc 68 3b be
       -0.32048556 0.14732811 -0.017016858 -0.18301672
0001c0 c0 0a 13 3e 27 0a 8c 3d ff 57 83 be 9d b9 b0 bd
       0.1435957 0.06837874 -0.25653073 -0.08629153
0001d0 2c 69 d3 bd f5 f9 3b 3e c3 a6 16 3e 08 d9 88 be
       -0.10322794 0.1835707 0.14712052 -0.26728082
0001e0 03 3e 01 be f9 39 59 bd 55 b2 0f be 70 bd e5 bc
       -0.12621312 -0.053033803 -0.14032872 -0.028044432
0001f0 62 be 27 3d e8 d8 dc 3a e8 8e 7b be e6 4d 63 be
       0.040953048 0.0016849311 -0.24566233 -0.22197685
000200 be df 07 3c e1 6d 41 bc 8f 9f 41 bc 85 aa 7b 3e
       0.00829309 -0.011805982 -0.011817827 0.24576767
000210 28 4b 29 bc 54 29 7e 3d d7 0f 2f 3d 88 54 68 be
       -0.01033286 0.062051132 0.042739715 -0.22688496
000220 0d 15 29 be f7 99 85 bd c1 69 9d 3d f8 66 53 3c
       -0.16511936 -0.06523507 0.076861866 0.012902968
000230 a5 ff 70 3e 75 1f f6 3d 18 f8 08 be 22 73 a4 3d
       0.2353502 0.12017719 -0.1337589 0.08029772
000240 17 63 16 be 15 aa 27 3e 1f 45 50 bd 5d a2 d9 bd
       -0.14686237 0.16373475 -0.05084717 -0.106266715
000250 00 8c d1 bd 40 7c 70 3d 69 55 97 3d 07 75 83 3e
       -0.10231781 0.058712244 0.073893376 0.25675222
000260 4b 93 15 be f3 81 17 be 3f 7b 87 3e 82 d5 59 bd
       -0.14606969 -0.14795665 0.26461217 -0.053182133
000270 b4 e9 33 3e 4a 7c fe 3d 11 55 82 bd 36 0f 3c be
       0.1756962 0.1242605 -0.063638814 -0.18365178
000280 13 1c e7 bd 50 b7 42 3e cf 74 1a 3e 67 04 bb 3c
       -0.112846516 0.1901524 0.15083621 0.022829248
000290 32 a5 7d bb e8 87 10 3e 29 b8 3d 3c 3b 93 c0 3c
       -0.00387032 0.14114344 0.011579552 0.023507705
0002a0 ad de c2 bc 78 20 26 be a8 3a 65 bc b6 43 65 bc
       -0.02378782 -0.16223323 -0.0139910355 -0.013993194
0002b0 e4 b0 06 be 3f 0c a2 bc 5b 03 61 be 64 57 04 be
       -0.13153416 -0.01978123 -0.21973936 -0.12923962
0002c0 ca d6 14 3e 1e 68 32 bd f6 dc 6b be e7 1f aa bd
       0.1453506 -0.043556325 -0.23033509 -0.08306866
0002d0 b1 dd 1e 3e f3 7f 23 3e fb bb ee 3d 25 93 4d be
       0.15514256 0.15966778 0.11656948 -0.20075662
0002e0 63 d7 1a be cb d7 ad bd 2c 6c 16 3e e2 72 87 bd
       -0.15121226 -0.08488425 0.14689702 -0.06613709
0002f0 fb 2f 8c 3c 99 a5 0d be 25 7f 6f bd 62 f7 a5 bc
       0.017112723 -0.13832702 -0.058470864 -0.020259563
000300 47 3f 8c 3d 1e 9e 1e 3e cc d4 4c 3e fa 57 c3 bc
       0.06848007 0.15490004 0.2000305 -0.023845661
000310 41 38 94 3c 2d cf 32 be e8 e1 18 3e a4 29 79 3d
       0.01809323 -0.17461844 0.14929926 0.060830727
000320 3a 91 b4 3d eb f2 72 be 79 0e ab 3c 8b 8d 5f 3e
       0.08816762 -0.23725478 0.020880925 0.21831338
000330 0d d4 d2 3d 29 1b 2c 3d 59 e2 4a 3e 15 6e 0e bd
       0.10294352 0.04201809 0.19812907 -0.03477295
000340 0b d2 09 3e e3 c8 d8 bd 6f e7 57 3e 91 37 65 be
       0.13459031 -0.10585191 0.21084379 -0.22384478
000350 70 65 10 3c e6 e8 a8 bd eb fc 80 3e 32 96 03 bd
       0.008813247 -0.08247547 0.2519296 -0.03212566
000360 68 dd 15 3e 5f de cb bd 0f 8c cd be d6 4e 03 3e
       0.14635241 -0.09954523 -0.4014592 0.12823042
000370 d0 d7 a3 bd a0 7d ea bd 6b c4 6a 3e 48 ef 79 bd
       -0.08000147 -0.11449742 0.2292649 -0.061019212
000380 3b 09 c2 3d 83 41 ad be da 86 15 be f7 c0 4c 3e
       0.09474417 -0.33839044 -0.14602223 0.19995485
000390 9c a8 64 3e d3 89 8a bd 9c 19 77 3e 37 64 cd bd
       0.22329944 -0.06764569 0.24130863 -0.1002888
0003a0 09 35 44 be 36 a0 fe 3d e4 7f 2e 3d f8 81 b1 3d
       -0.19160856 0.124329016 0.042602435 0.08667368
0003b0 b4 c2 c6 bd f0 00 8e 3c 39 70 23 be a5 52 d7 3c
       -0.097051054 0.017334431 -0.15960778 0.026284525
0003c0 33 32 d8 bd 20 b3 1a be cb fb 37 3e 70 b9 fd bd
       -0.1055645 -0.15107393 0.17967145 -0.12388885
0003d0 96 f3 3f 3d 75 6f 2a be c6 0d 01 3e 87 03 90 bc
       0.04686316 -0.1664408 0.1260291 -0.017579807
0003e0 75 a8 5e be 04 9e d3 bd 3f 32 7b 3b 6a 40 93 bc
       -0.21743949 -0.103328735 0.003832951 -0.017975051
0003f0 8b 69 00 bd dc f6 ff bd 15 11 04 3e 3b 08 ef 3d
       -0.031350654 -0.124982566 0.12897141 0.11671492

StatefulPartitionedCall/sequential/dense_1/BiasAdd/ReadVariableOp:0 f4 [64]
000000 ae b7 52 bc e8 99 06 bc 06 13 25 ba b2 74 2f 3c
       -0.012861175 -0.008215405 -0.0006297085 0.010708975
000010 91 53 e1 bc 92 95 d5 3c b6 d6 33 3c 57 d1 6f bc
       -0.027505668 0.026072297 0.010976484 -0.014637313
000020 e4 f0 18 bc 38 36 8a 3c 2c bd 41 3d db 28 bc ba
       -0.009334777 0.016871557 0.04729955 -0.0014355438
000030 ce fb 09 3c d0 b6 ca 3b f0 d2 a3 bc 9f 31 1f 3c
       0.008421851 0.0061863437 -0.019998044 0.00971642
000040 cb 20 05 3d 9f 53 c8 bc 5f c4 83 bb 6a 36 54 3d
       0.032501977 -0.024453936 -0.004021212 0.051809706
000050 8d 8d fb 3c ff 82 00 3c a2 48 39 bd 7d 71 78 bb
       0.030707145 0.007843732 -0.045235284 -0.003790944
000060 e7 af 03 3d 91 61 bd bc 39 48 e2 3b 22 c3 42 bc
       0.032150175 -0.023117812 0.0069055823 -0.011887344
000070 2e ef 65 bb 6f 75 05 bb e5 a7 8d 3c b7 52 05 3d
       -0.003508519 -0.0020364185 0.017291972 0.032549586
000080 78 57 3c bd d2 d5 5a 3d 6e 65 67 3d b4 e5 9b bb
       -0.045981854 0.05342657 0.056493215 -0.0047576074
000090 fe e5 91 3d 72 ea 3a 3a ed d8 ec bb 8b 1d 13 bc
       0.07123946 0.0007130272 -0.007228008 -0.008979212
0000a0 09 af 26 3d 73 6c 95 3c 99 85 a0 3c ec a3 4d bc
       0.04069427 0.01824019 0.019594954 -0.012551289
0000b0 5e e1 ed 3b e6 71 34 3c 33 a9 a7 bc 95 00 05 3c
       0.007259532 0.011013484 -0.020466423 0.008117815
0000c0 3f bf 02 bd 3c 0e 9b 3b 5d 65 21 bd da 1e 46 3d
       -0.031920668 0.0047319215 -0.03940331 0.048369266
0000d0 ee 34 65 3d 11 5c 90 3c f3 86 da bc 8d 94 8e 3b
       0.05595868 0.017622026 -0.026675677 0.0043512047
0000e0 c7 a8 0a 3d c5 a9 d5 3c 37 0b 62 3d 78 7d 3d bb
       0.033852365 0.026081929 0.055186477 -0.0028913897
0000f0 34 09 a8 bc 93 3c fe 3a 3c ee eb 3c 11 d0 30 3b
       -0.0205122 0.0019396715 0.028800122 0.0026979486

StatefulPartitionedCall/sequential/dense/MatMul/ReadVariableOp:0 f4 [78, 64]
000000 91 08 46 3e dc a2 b3 3e 43 ba b5 3d 6f 08 2b 3e
       0.19339205 0.3508519 0.08873417 0.16702436
000010 7a 6d a4 3d 21 4e a4 3c f2 6d a6 bd 76 98 68 be
       0.080286935 0.020056786 -0.08126439 -0.22714409
000020 ec c5 99 be 52 d5 57 3e 88 39 8f 3d 93 36 15 3e
       -0.30033815 0.21077469 0.06993395 0.145716
000030 11 0b 1d 3b e6 00 07 bc 39 c2 ec 3d 3a f4 17 be
       0.0023962895 -0.00823996 0.115604825 -0.14839259
000040 a8 2c 0e 3e 8a 22 91 be fc 0c a5 3e 6a 53 33 be
       0.13884223 -0.28346664 0.3223647 -0.17512289
000050 5d 5b a2 3e 17 64 22 bd 58 9a 50 bd e5 bb b7 bd
       0.3171033 -0.039646234 -0.050928444 -0.08971385
000060 e4 af a9 3d 39 7e 50 bd 77 ec f3 3d 2c 7a 90 be
       0.082855016 -0.050901625 0.119103365 -0.2821821
000070 4f ad 8d bd bc b4 a3 be ad ab 36 be 92 5c 37 3d
       -0.069178216 -0.31973827 -0.17838927 0.044766016
000080 17 6f 92 3e 6e e4 9b 3d 70 67 85 3e cf 7d 8b bd
       0.2860038 0.07611929 0.2605548 -0.068111055
000090 f8 6a 52 be 65 51 dc bd 3d 25 9d be 72 6d 1a 3e
       -0.20548618 -0.10757712 -0.30692473 0.15080813
0000a0 53 6a c7 3e 40 15 77 3c 82 84 96 3e 16 99 50 3e
       0.38948306 0.01508075 0.2939797 0.20370898
0000b0 47 d3 33 3e fe 86 99 bd 6d 1d 3e be f9 79 31 bd
       0.17561065 -0.07496451 -0.18565913 -0.043329213
0000c0 8b 5d 44 be df 62 0e be 17 a4 41 be 1b fb 48 bc
       -0.19176309 -0.13904904 -0.18910252 -0.012266899
0000d0 46 2d 19 be 5a e5 c0 3e 4b 52 3d 3e 28 17 c9 be
       -0.14958677 0.3767498 0.18488424 -0.3927548
0000e0 96 14 9d be 21 f4 8c be 98 18 c1 bd 0a c2 96 be
       -0.30679768 -0.27530006 -0.09428519 -0.29444915
0000f0 89 69 07 3e e2 82 df 3d fb a6 3d 3e 78 ac db bc
       0.13223852 0.10913636 0.18520729 -0.026815638
000100 4d 66 50 be ca d2 6b bd c4 94 95 3d 1a f4 d7 bd
       -0.20351525 -0.05757407 0.073037654 -0.105446056
000110 53 c9 12 be ed 7e 99 3b 6a ea 03 3e a0 db 4a bd
       -0.14334612 0.00468432 0.1288239 -0.049525857
000120 10 10 58 be 67 a5 10 be 69 e9 d6 bc 21 40 00 3d
       -0.21099877 -0.14125596 -0.026234346 0.031311158
000130 20 f9 dd bd cd 57 06 3c 4b 0e 16 bd 77 09 b0 3c
       -0.108385324 0.008199644 -0.036634725 0.021488888
000140 7c cb 15 3e 35 1e 66 be 01 cf 5a 3e 60 1f f7 bc
       0.14628404 -0.2247246 0.21368028 -0.030166328
000150 05 4a 13 3e 7f 7b 88 3b 5b bc 8a bd 33 e4 da b9
       0.14383705 0.0041651125 -0.06774207 -0.00041750222
000160 98 5f 4c 3e ae 49 1f be c8 61 ff 3d 27 66 83 3d
       0.19958341 -0.1555545 0.12469822 0.064159684
000170 46 cf 51 be 0a 37 16 3e b3 7a ed bd 1d ad 15 be
       -0.20489225 0.14669433 -0.11595669 -0.14616819
000180 59 78 df 3c b7 1a 1f be e9 35 3f 3e db 84 38 3c
       0.027279066 -0.15537535 0.18672909 0.011262144
000190 91 2c 37 be 2a ca dc bd 7e 3e 83 bc c4 53 27 bc
       -0.17888094 -0.10780747 -0.01602101 -0.010212842
0001a0 b4 da bd bc 4d 1a b8 3b 90 ca a1 3d a1 b8 b2 bd
       -0.023175575 0.0056183697 0.07899964 -0.087266214
0001b0 95 14 5c bc 65 1b bc 3d ab 75 96 3d 27 2e 8c bd
       -0.0134326415 0.091849126 0.07346662 -0.0684474
0001c0 57 4f dd bd 21 8f 18 be da d1 05 be 3f 3d f3 3d
       -0.108061485 -0.1489835 -0.13068333 0.11876916
0001d0 bb 1f 43 bd 14 a7 0d 3e 4f 2f 81 3c 3c 0b 54 bd
       -0.047637682 0.13833266 0.015769629 -0.051768526
0001e0 cb 2e c7 3d 36 cb 1e bd ed 57 d5 3d 62 cf e1 bd
       0.09725722 -0.038768016 0.10417161 -0.11025883
0001f0 2a e4 f0 bd 93 32 1a bd 23 4b 0f be 7d a8 2a be
       -0.11762269 -0.037645888 -0.13993506 -0.16665836
000200 06 69 ad bd 3a 7b ef bc 48 d2 90 3d 0b 1d 37 3d
       -0.08467297 -0.029233564 0.07071358 0.044705432
000210 60 ec 65 bd b5 d1 fc 3b ca e5 4b 3d 63 9e 37 be
       -0.056133628 0.0077154287 0.04977969 -0.17931513
000220 de 77 26 be 97 23 16 3e dc c1 bf bd 44 6f 82 3d
       -0.16256663 0.14662014 -0.093631476 0.063688785
000230 1d 82 00 3c 62 72 12 be 50 e8 b6 3d ec f3 1b 3d
       0.007843521 -0.14301446 0.08931029 0.03807442
000240 ae 57 b3 bc f1 cf 57 3d b3 72 e1 3d b9 ac e8 3b
       -0.021892395 0.052688543 0.11008205 0.0071006683
000250 62 b2 f1 3d 94 d7 d5 3b 98 a1 3b 3c f7 1a e2 bb
       0.11801602 0.006525943 0.011452101 -0.006900187
000260 41 63 f6 ba 9e e2 1c 3e 06 6f db 3d 33 29 82 bd
       -0.001879789 0.15320823 0.107145354 -0.063555144
000270 44 f1 b5 ba 76 10 ad bd 2c 48 16 be 7e ab c0 3c
       -0.0013881107 -0.08450405 -0.14675969 0.023519274
000280 14 d4 49 be 1f 02 27 3e d3 7f 30 be 4d 9a d4 3d
       -0.19709808 0.16309403 -0.17236261 0.10380993
000290 a8 23 db 3d b0 44 27 bd de 4e 37 be b5 b4 88 bc
       0.1070016 -0.04083699 -0.17901179 -0.01668773
0002a0 88 0c 7a be 37 b7 ce bd 21 5d ff bd b8 7c 16 be
       -0.24418843 -0.10093539 -0.12468935 -0.14696014
0002b0 ef 00 5d bd d8 75 06 3e 20 9c 2b 3e 54 8e 0d bc
       -0.05395597 0.13130891 0.16758776 -0.008639891
0002c0 f2 13 4b be 25 94 12 bc b2 9f 30 be 50 8e 65 be
       -0.19831827 -0.008946453 -0.17248419 -0.22417569
0002d0 a6 cf 6b 3e ed f4 ce 3d 6c b6 47 be 4d 61 e3 3c
       0.2302843 0.1010531 -0.19503182 0.027756358
0002e0 bf df 63 be 6c 9a eb 3c f1 e1 24 3d 11 1e 89 3d
       -0.22253321 0.028760158 0.040254537 0.06695188
0002f0 68 40 de 3d 69 bf 01 3e 18 bc 57 be 65 db 0c be
       0.10852128 0.12670673 -0.21067846 -0.13755567
000300 11 45 71 be 2b 01 a5 3f e9 ca cc 3f f7 22 63 bf
       -0.23561503 1.2890981 1.5999423 -0.8872523
000310 e8 be 71 3f 53 60 d7 bb 63 cc 9f bf c9 8f 9d bf
       0.94431925 -0.006572762 -1.2484249 -1.2309505
000320 55 de 48 bf 3d c7 a9 3f 03 ac 67 bf b0 e7 5d bd
       -0.7846425 1.3263928 -0.90496844 -0.054176033
000330 a5 96 ad 3f c8 a8 14 3e 88 84 ab 3f 03 b8 b3 bf
       1.3561598 0.1451751 1.339982 -1.4040531
000340 4f 31 c0 3f 50 4c b5 bf ce 45 b3 3f 2b 1b c4 bf
       1.5015048 -1.4163914 1.4005678 -1.5320791
000350 89 2a 92 3f 96 c0 ce bf 34 44 89 bf b2 21 2e 3e
       1.1419231 -1.6152523 -1.0723939 0.17005041
000360 d0 d8 30 3f 56 d9 52 3f bc b6 ab bd c0 1f 72 bf
       0.6908083 0.8236288 -0.08384463 -0.94579697
000370 cd e5 cc bf e6 e3 b8 bf 26 88 40 bf 5c 97 23 3f
       -1.600763 -1.4444549 -0.75207746 0.6390283
000380 ee 6b a9 3f 4a b2 c2 bf 54 0f b2 3f e0 f7 89 bf
       1.3236063 -1.521066 1.3910928 -1.077877
000390 fe 3a d2 bf 33 40 eb be 88 95 ae bf 1f a4 26 3f
       -1.6424253 -0.45947418 -1.3639383 0.6509418
0003a0 e4 cf ad 3f 54 d8 9e bf 57 61 a6 3f 42 2b 85 bf
       1.3579068 -1.2409768 1.2998456 -1.0403826
0003b0 3e 7e 10 3f 20 7f e3 3e ae ae a7 bf 3b ad 83 3e
       0.5644263 0.44432926 -1.3100183 0.25718102
0003c0 ef 9a 73 bf 4e 78 9c bf 1e c1 a1 bf 54 ee cb be
       -0.95158285 -1.2224214 -1.263706 -0.39830267
0003d0 7f 33 fa 3e 14 c1 c1 3f 1b 75 e8 3e 9d 73 92 bf
       0.48867413 1.5137048 0.45401844 -1.1441532
0003e0 b1 df 41 bf 95 dd 4b 3f 38 c5 9c bf c0 b5 a0 bf
       -0.7573195 0.7963498 -1.2247686 -1.2555466
0003f0 54 5d 83 3f f6 40 7b 3f 14 de 9e 3f 53 b8 f6 3e
       1.0262856 0.98146 1.2411523 0.48187503

StatefulPartitionedCall/sequential/dense/BiasAdd/ReadVariableOp:0 f4 [64]
000000 14 b7 64 bb 1f 96 e7 bc b2 dc c8 bc 45 14 b3 3b
       -0.0034899162 -0.028269826 -0.024519298 0.005465063
000010 11 3b fb bc 45 5c ea 3c 0e 59 89 3c 09 d6 61 3b
       -0.030667813 0.02860845 0.016766097 0.003445985
000020 b1 18 c4 bb 26 8d 83 3b 48 2f de 3b 09 bf d7 3a
       -0.0059843888 0.004014629 0.0067805387 0.0016460131
000030 75 b3 9b 3b 0e d6 40 3c 0b 95 28 bd 96 03 96 3c
       0.0047516176 0.011769785 -0.041157763 0.018312257
000040 fb d9 d9 bb f9 4b d5 3c cf cd 52 bc c9 9b 05 3d
       -0.0066482997 0.026037203 -0.012866451 0.03261927
000050 c3 74 02 bd ac 3e 9b 3c 09 2f 43 bc 4d f4 ab bc
       -0.031849634 0.018950783 -0.0119130695 -0.020990515
000060 20 50 f9 3c 80 d3 36 bc 9a 5f 3e bc aa e5 e2 3b
       0.030433714 -0.011158824 -0.011619473 0.0069243507
000070 93 d4 50 bb cd 16 b4 ba d7 96 78 bc d2 01 0a bc
       -0.0031864985 -0.0013739705 -0.015172682 -0.008423286
000080 95 01 d8 bc 8b 4a 43 3c 4d b0 1c bd ec 5c e3 3c
       -0.026367942 0.011919628 -0.03825407 0.02775427
000090 27 5e 41 3c d5 d2 2d bc 72 0e 03 3d 52 fe 28 bc
       0.011802233 -0.010609348 0.031996198 -0.010314541
0000a0 cc 01 b1 bc f1 fc 41 3b 5c eb 1e bc 3d 63 55 3d
       -0.021607302 0.0029600228 -0.009699669 0.052096594
0000b0 19 c3 08 bd 06 29 68 3b c9 91 a3 bc 65 03 4a 3c
       -0.033389185 0.0035424842 -0.019966977 0.012329911
0000c0 7e f5 80 3c b6 42 98 bc 43 a7 87 3c 72 b9 18 3c
       0.01574206 -0.018586498 0.016559249 0.009321557
0000d0 ee 2a 3a 3c 0b 59 ed bc 12 90 25 bc 37 a7 af 3c
       0.011362774 -0.028973123 -0.01010515 0.021442039
0000e0 2f 99 14 3d 7f e2 20 3c 32 7b 55 ba 48 b9 b5 bb
       0.0362789 0.009819626 -0.00081436627 -0.005545769
0000f0 df 56 9a bc f1 de 89 bb af b0 0f bd 42 f7 84 3b
       -0.018840251 -0.004207485 -0.035080608 0.0040577957
