kees_code/final_model/models/classifier_SF_noZ.onnx (onnx, 56974 bytes, 7 tensors)

StatefulPartitionedCall/sequential/dense_3/MatMul/ReadVariableOp:0 f4 [64, 1]
0	0x3ead7b3e	0.3388309
1	0x3eb6c256	0.35695142
2	0xbe5a9f5a	-0.2134985
3	0x3f1a3d12	0.60249436
4	0x3e9bfd01	0.30466464
5	0x3e8c8530	0.27445364
6	0x3ef25bac	0.47335565
7	0x3f24d711	0.64390665
8	0x3f19f510	0.6013956
9	0xbef4dd75	-0.47825208
10	0x3ec16986	0.3777582
11	0x3ebae201	0.36500552
12	0xbf00bfdb	-0.5029275
13	0x3d0d6ecd	0.034529496
14	0xbea984ec	-0.33109224
15	0x3f0af606	0.5428165
16	0xbf15b894	-0.5848477
17	0x3dd1c8f5	0.10243408
18	0xbeabb32d	-0.33535138
19	0xbed1f26b	-0.41005263
20	0x3f2131ae	0.6296643
21	0x3dfb0a19	0.12257785
22	0x3f0d620f	0.5522775
23	0x3f0aff29	0.54295594
24	0xbea0de10	-0.3141942
25	0xbee96540	-0.4558506
26	0x3e9ac314	0.30226958
27	0x3eda315e	0.4261579
28	0xbe9e1f06	-0.30883044
29	0x3ea9efe6	0.3319084
30	0xbf46753d	-0.7752264
31	0xbec4493e	-0.3833713
32	0xbf0118fe	-0.5042876
33	0xbee288e4	-0.44245064
34	0x3f1d1e37	0.6137423
35	0x3ea27e6b	0.31737074
36	0x3f076be1	0.52898985
37	0xbe77c5dc	-0.24196571
38	0x3ed87921	0.42279914
39	0x3ef1ba0d	0.47212258
40	0xbef16ef0	-0.4715495
41	0xbedc0b42	-0.4297734
42	0x3ea62a1d	0.32454005
43	0x3ec05da1	0.37571433
44	0xbf012c09	-0.5045782
45	0xbe664589	-0.22487463
46	0xbee6d621	-0.45085242
47	0x3eb46841	0.3523579
48	0x3eb154a8	0.346349
49	0xbebcfcf7	-0.36911747
50	0xbecd47cb	-0.40093836
51	0x3ebe535a	0.37172967
52	0xbcb61c89	-0.022230403
53	0x3ecc4fb1	0.3990455
54	0x3ef5fb03	0.4804307
55	0x3ef2d5db	0.47428784
56	0xbe971f3f	-0.29516026
57	0xbf0c2e81	-0.5475846
58	0xbf179a93	-0.59220237
59	0xbe978afd	-0.29598227
60	0xbea77ee0	-0.32713985
61	0xbe612c32	-0.21989515
62	0xbe818c60	-0.2530241
63	0xbe8858b5	-0.26630178

StatefulPartitionedCall/sequential/dense_2/MatMul/ReadVariableOp:0 f4 [64, 64]
0	0xbe240ed2	-0.16021279
1	0xbd7f435c	-0.0623201
2	0x3ea6169d	0.32439128
3	0xbcb0260e	-0.02150252
4	0xbe8ce373	-0.2751728
5	0xbdaa44b9	-0.08313889
6	0xbe96af1f	-0.29430482
7	0xbe5d41a5	-0.21607073
8	0x3d041776	0.032248937
9	0x3e9cd03e	0.30627626
10	0xbd567ac8	-0.052363187
11	0xbe44f950	-0.1923573
12	0x3e12c666	0.14333495
13	0x3e431b65	0.19053419
14	0x3e40d5e1	0.18831588
15	0xbba9209b	-0.0051613576
16	0x3e6a87bd	0.22903343
17	0x3dd96552	0.106150284
18	0x3d8b5f1a	0.068052486
19	0x3e49fedb	0.19726126
20	0x3c9ea398	0.019365117
21	0xbe57cb8c	-0.2107374
22	0x3d903559	0.07041425
23	0xbe6be73c	-0.23037428
24	0x3eb4ddc3	0.3532544
25	0x3eab6498	0.33475184
26	0xbe2d7195	-0.1693786
27	0xbe5da9d0	-0.2164681
28	0x3eb79535	0.35856023
29	0x3dd9a65b	0.10627433
30	0x3d68f6b7	0.05687591
31	0x3e380b77	0.17973123
32	0x3e0027d5	0.12515195
33	0x3c97acb7	0.018514974
34	0x3d9b146e	0.07572256
35	0x3c6384c5	0.013886635
36	0x3dd51f33	0.104063414
37	0x3d00a5fd	0.0314083
38	0xbe2a7b6b	-0.16648643
39	0xbdf9688a	-0.12178142
40	0x3e8f7c1e	0.2802438
41	0x3da775d5	0.081767716
42	0xbd5ebee0	-0.05438125
43	0xbea0f54c	-0.31437147
44	0x3e207c98	0.15672529
45	0x3dec26c7	0.11530834
46	0x3ebdd1fe	0.37074274
47	0xbd8573d4	-0.06516233
48	0xbcd4f3b6	-0.025995117
49	0x3e06ea79	0.13175382
50	0x3eb1950f	0.34684035
51	0xbdd11817	-0.10209673
52	0xbb8e5c7b	-0.0043445206
53	0x3d9ee8c8	0.07759243
54	0xbe57bb56	-0.21067557
55	0x3b57674d	0.0032867969
56	0x3e862cb2	0.26205975
57	0x3e976a6f	0.2957339
58	0xbbb7cdf9	-0.0056092707
59	0x3e2d62b8	0.1693219
60	0x3e1eb0cf	0.15497135
61	0xbd242edb	-0.040083747
62	0x3e3a663e	0.18203065
63	0x3ebbaa11	0.36653188
64	0x3cfa6b6d	0.030568803
65	0xbd64032c	-0.055667087
66	0x3da6e51e	0.081491694
67	0xbe510272	-0.20411089
68	0xbea80207	-0.32814047
69	0xbe9f49b9	-0.31110933
70	0xbe46a597	-0.19399105
71	0xbcfd451b	-0.030916741
72	0xbe684d22	-0.22685674
73	0x3e169e1f	0.14708756
74	0xbdaf902a	-0.08572419
75	0xbcc3610b	-0.023849985
76	0x3d2057b3	0.039146136
77	0xbdf92ec0	-0.1216712
78	0x3eab89fc	0.3350371
79	0xbe6cd9be	-0.23129937
80	0x3e94a395	0.29031053
81	0x3d84e59c	0.06489107
82	0x3eace3ce	0.3376755
83	0x3e554d05	0.20830162
84	0xbd84a13d	-0.06476066
85	0xbda7c453	-0.08191743
86	0xbe2fddc6	-0.17174444
87	0xbe883639	-0.2660387
88	0xba504c6b	-0.00079459575
89	0x3e97f7f8	0.29681373
90	0xbdb1bdec	-0.08678803
91	0xbd48eeed	-0.049055982
92	0x3d573193	0.052537512
93	0xbdeb7034	-0.114960104
94	0xbd866884	-0.065629035
95	0x3ec30871	0.38092378
96	0x3e3e3f49	0.18578829
97	0x3e7708fa	0.24124518
98	0x3d9073cf	0.07053339
99	0xbd9c40e3	-0.07629564
100	0xbe4cb141	-0.19989492
101	0x3e1d9838	0.15390098
102	0xbd85a98a	-0.06526478
103	0xbd3dabce	-0.046306424
104	0x3e4543a0	0.19264078
105	0x3ed268ed	0.41095677
106	0x3ce07925	0.027401516
107	0xbe879381	-0.26479724
108	0xbc2afd94	-0.010436434
109	0x3dbf0888	0.09327799
110	0x3e8a79da	0.2704609
111	0xbe66e430	-0.22547984
112	0xbd71085a	-0.058845855
113	0x3d6ded81	0.05808783
114	0x3c02b70b	0.007978211
115	0xbe558573	-0.20851688
116	0x3d24297a	0.040078618
117	0xbe0a82af	-0.13526414
118	0xbdafbb24	-0.08580616
119	0x3d7c5de3	0.061612975
120	0x3ec6bfac	0.3881811
121	0x3ddb5181	0.10708905
122	0x3eb5ed8c	0.35532796
123	0x3e4e0134	0.20117646
124	0x3e8a9e56	0.27073926
125	0x3e92ed7a	0.28696805
126	0x3e9d6e87	0.30748388
127	0x3e66aeab	0.22527568
128	0x3d7dbfb7	0.06195041
129	0x3e9c4b48	0.30526185
130	0x3cdb9133	0.026802635
131	0x3e9b9f5c	0.3039502
132	0xbbab67d1	-0.0052308817
133	0x3e70b660	0.2350707
134	0x3e1ac7e0	0.15115309
135	0x3e7a954d	0.24471016
136	0xbc3d2767	-0.011545039
137	0xbe958dec	-0.2920984
138	0xbdd1f243	-0.10251286
139	0x3dc874f6	0.097879335
140	0xbe768c2e	-0.24076912
141	0xbc029cf4	-0.007971991
142	0xbe825904	-0.2545854
143	0xbd5ea201	-0.054353718
144	0xbe652373	-0.22376804
145	0xbe11bbd9	-0.14231814
146	0xbe15afb4	-0.14617807
147	0xbe7f886b	-0.24954383
148	0xbd911e02	-0.07085802
149	0xbc203ce8	-0.009780146
150	0x3e4fb5d0	0.202842
151	0xbe529f3b	-0.20568554
152	0xbeb1e440	-0.34744453
153	0xbe78c692	-0.24294499
154	0x3d40e618	0.047094434
155	0x3cbc990f	0.023022203
156	0xbe3ef785	-0.18649109
157	0x3dee3b52	0.11632408
158	0x3d607cc4	0.054806486
159	0xbe2af2d1	-0.1669419
160	0xbe400021	-0.18750049
161	0xbe87a6ca	-0.26494437
162	0x3ec9f1ff	0.3944244
163	0x3e1e0539	0.1543168
164	0x3e9dd73c	0.30828273
165	0xbe00f4e1	-0.12593414
166	0x3dd65e79	0.10467238
167	0x3da27f15	0.07934395
168	0xbe822dd9	-0.25425604
169	0xbe1c7af8	-0.15281284
170	0x3e34c71c	0.17654079
171	0x3d5eaad6	0.05436214
172	0xbe814ae7	-0.25252458
173	0xbd2dce58	-0.042433113
174	0xbe950b75	-0.29110304
175	0x3ce9de75	0.028548459
176	0x3d13012c	0.03588979
177	0xbe1a2551	-0.15053298
178	0xbeaec31d	-0.34133235
179	0x3e9b890e	0.30378002
180	0xbdd70037	-0.10498088
181	0x3d0b9e25	0.034086365
182	0xbdf43197	-0.11923521
183	0xbc503300	-0.012707472
184	0x3cde6c9b	0.027151396
185	0x3d69811b	0.05700789
186	0xbd13811f	-0.03601181
187	0xbebacfc3	-0.36486635
188	0xbcb2b68f	-0.021815566
189	0x3e247a3c	0.16062254
190	0xbd459e09	-0.048246417
191	0xbe97a209	-0.2961581
192	0xbd488d4e	-0.048962884
193	0xbe98d973	-0.298534
194	0x3d36a1a9	0.044587765
195	0xbe1cc1ab	-0.15308253
196	0xbd9368f6	-0.07197754
197	0xbe0b7f55	-0.13622792
198	0xbe889218	-0.2667396
199	0xbea6cdb6	-0.3257882
200	0x3c1b0b35	0.009463121
201	0x3e41b735	0.18917544
202	0x3db944ad	0.09046302
203	0xbabce307	-0.0014410921
204	0x3ea26ced	0.3172373
205	0x3d99618d	0.074893095
206	0x3dd88989	0.10573108
207	0xbe935cbc	-0.28781688
208	0x3e74dcec	0.239124
209	0xbdbffb7c	-0.09374139
210	0x3c94f5e6	0.01818366
211	0xbd40ba24	-0.047052518
212	0xbe72d0f0	-0.23712516
213	0xbc3119f5	-0.010809411
214	0xbd0406f2	-0.032233186
215	0xbe3947f3	-0.18093853
216	0x3e3c2a0c	0.18375415
217	0x3ea0f29f	0.31435105
218	0xbe7a280e	-0.24429342
219	0xbe7b529a	-0.24543229
220	0x3d81381d	0.06309531
221	0xbe980ce9	-0.2969735
222	0xbd42b76f	-0.047538217
223	0x3e88794c	0.26655042
224	0x3e8a1e69	0.26976326
225	0x3c9efa19	0.019406365
226	0xbd7394ad	-0.05946796
227	0xbe29d536	-0.1658524
228	0xbc61a56f	-0.013772353
229	0x3a91f6bd	0.0011136156
230	0x3c5c6971	0.013452874
231	0xbb4450b1	-0.0029955322
232	0xbd6e857d	-0.058232773
233	0x3e5752e8	0.2102772
234	0xbe554d33	-0.2083023
235	0xbe4cb744	-0.19991785
236	0x3e9890d6	0.29798
237	0x3dddae19	0.10824222
238	0x3e919da6	0.2844059
239	0xbe70bb7f	-0.23509024
240	0x3d58656e	0.052831106
241	0x3ca05872	0.019573424
242	0x3eaca958	0.3372295
243	0xbdff6ed1	-0.124723084
244	0xbb8758fd	-0.0041304813
245	0xbe8e37ed	-0.27777043
246	0xbe8628ed	-0.262031
247	0xbe8ec305	-0.27883163
248	0x3d993620	0.07481027
249	0x3e8ba69d	0.27275553
250	0x3e04d533	0.12971954
251	0x3bbbb825	0.005728739
252	0xbd11d1f0	-0.035600603
253	0x3e2ea030	0.17053294
254	0x3e0a3097	0.13495098
255	0x3dbedecb	0.09319838

StatefulPartitionedCall/sequential/dense_2/BiasAdd/ReadVariableOp:0 f4 [64]
0	0x3dd385b3	0.103282355
1	0x3db21fcf	0.08697473
2	0x3d2f4ed5	0.04279979
3	0x3dce7938	0.100817144
4	0x3dc2e6bb	0.095166646
5	0x3dbe8b8e	0.09303962
6	0x3d9185f7	0.0710563
7	0x3debb753	0.11509576
8	0x3dceca19	0.10097141
9	0x3d784d45	0.060620565
10	0x3cc95563	0.024576848
11	0x3dde9ebc	0.1087012
12	0x3d8c9e63	0.06866147
13	0xbd4e6fc3	-0.050399553
14	0x3d8fb028	0.07016021
15	0x3db50313	0.08838477
16	0x3da766ef	0.0817393
17	0xbd0326b6	-0.03201934
18	0x3d8c33ba	0.068458036
19	0x3d702288	0.05862668
20	0x3dd3b12b	0.103365265
21	0xbd84642e	-0.0646442
22	0x3da41e11	0.08013547
23	0x3db2a660	0.0872314
24	0x3d9d14ff	0.0767002
25	0x3d68c4cf	0.056828316
26	0x3dc71c20	0.09722161
27	0x3dbddcef	0.09270655
28	0x3db0cf60	0.08633304
29	0x3dd76999	0.10518188
30	0xbe0516c2	-0.12996963
31	0x3d87dbd0	0.06633723
32	0x3d68f70f	0.05687624
33	0x3d47f8d0	0.04882127
34	0x3d428848	0.04749325
35	0x3dc70549	0.09717805
36	0x3df67758	0.12034482
37	0x3d9cbf6d	0.07653699
38	0x3db862ba	0.090032056
39	0x3d8a1eba	0.06744142
40	0x3d73a3a4	0.05948223
41	0x3d950e4e	0.07278119
42	0x3dc928ab	0.0982221
43	0x3d8d2e27	0.068935685
44	0x3d87ca80	0.06630421
45	0x3d15e8dc	0.036599025
46	0x3d54ed7a	0.051984288
47	0x3ddac706	0.10682492
48	0x3dbec9ba	0.0931582
49	0x3d86583b	0.065597974
50	0x3d3ad0f9	0.045609448
51	0x3d9cef94	0.076628834
52	0xbd4f9295	-0.0506769
53	0x3de391f5	0.111118235
54	0x3db2729f	0.087132685
55	0x3da6ded1	0.081479676
56	0x3d337077	0.043808427
57	0x3ca6e64c	0.020373486
58	0xbd4a74ba	-0.049427725
59	0x3d5a57d8	0.05330643
60	0x3d74c3bb	0.059756976
61	0x3c4f0cc0	0.012637317
62	0x3d109caa	0.035305656
63	0x3d8f16f0	0.06986797

StatefulPartitionedCall/sequential/dense_1/MatMul/ReadVariableOp:0 f4 [64, 64]
0	0x3c1c3975	0.009535183
1	0xbdb820e1	-0.08990646
2	0xbd9b08e0	-0.07570052
3	0xbe227493	-0.15864782
4	0x3da0b145	0.078463115
5	0xbe550cca	-0.2080566
6	0xbe547a1c	-0.20749706
7	0x3d4cba5c	0.049982414
8	0x3e4e874b	0.20168798
9	0x3dc947f8	0.0982818
10	0xbe11bea9	-0.14232887
11	0x3c8694c5	0.01642836
12	0x3d332850	0.043739617
13	0xbd3cf7d6	-0.046134792
14	0x3cca50cf	0.024696736
15	0x3b2c7e48	0.0026320387
16	0xbd4ecce3	-0.050488364
17	0x3e023203	0.1271439
18	0x3e6f8513	0.23390608
19	0xbda3921e	-0.07986854
20	0x3db8ee98	0.09029883
21	0xbd7bb83f	-0.061455008
22	0x3df58cf4	0.11989775
23	0x3c499a40	0.0123048425
24	0x3dd99817	0.10624712
25	0xbd9156fb	-0.07096668
26	0x3d72ee2d	0.059309173
27	0xbd75be67	-0.059996035
28	0x3e10da71	0.14145829
29	0xbcb42ee0	-0.021995008
30	0x3e55f91c	0.20895809
31	0x3c117f6b	0.0088804765
32	0xbd7adb8c	-0.061244532
33	0x3ceee4dd	0.029161865
34	0xbe5a3060	-0.21307516
35	0xbe31b8d5	-0.17355664
36	0xbb91ee3c	-0.0044534486
37	0x3d81bbca	0.06334646
38	0x3d54577b	0.05184124
39	0x3dabebd2	0.083945885
40	0xbe73ec6f	-0.23820661
41	0xbe1f7d02	-0.1557503
42	0xbe05f94f	-0.13083385
43	0x3e245f3a	0.16051951
44	0xbc2a2142	-0.010383906
45	0x3e6b0200	0.22949982
46	0x3c457557	0.012051902
47	0xbe32b937	-0.17453466
48	0x3e4f7a45	0.20261486
49	0xbe445cb3	-0.19175987
50	0xbea25b0b	-0.31710085
51	0xbe468b1b	-0.19389002
52	0x3d2f6076	0.0428166
53	0x3bf4587f	0.0074568386
54	0xbd135ad4	-0.035975292
55	0x3e42b101	0.19012834
56	0xbdc56c12	-0.096397534
57	0xbe607834	-0.21920854
58	0xbdd159c2	-0.10222198
59	0xbe38be20	-0.18041277
60	0x3e3c28da	0.18374959
61	0x3c9bc94c	0.019016884
62	0x3d908570	0.07056701
63	0x3e418d29	0.18901505
64	0xbe7d43f3	-0.24732952
65	0xbc03ae01	-0.008037091
66	0x3e0629e8	0.13101923
67	0xbda05029	-0.07827789
68	0xbe1c7292	-0.1527808
69	0xbc97ed90	-0.018545896
70	0xbe586d28	-0.2113539
71	0xbe25c79e	-0.16189429
72	0xbd0dc075	-0.03460737
73	0xbe62e11d	-0.22156186
74	0xbd1d8f52	-0.03846676
75	0xbe216ff2	-0.1576536
76	0xbe70b29a	-0.23505631
77	0xbea02cc1	-0.31284145
78	0x3e173be3	0.14768939
79	0x3c85417d	0.016266579
80	0xbe063164	-0.13104779
81	0x3d393e5c	0.045225486
82	0xbeae225a	-0.34010583
83	0xbdace0f6	-0.084413454
84	0x3de8530e	0.113439664
85	0x3c367fe4	0.01113889
86	0xbde08df3	-0.10964575
87	0xbe98aa44	-0.29817402
88	0x3d8f8f6a	0.07009776
89	0x3d9c8f7c	0.07644555
90	0xbdab0eed	-0.08352456
91	0xbe6f588d	-0.23373623
92	0x3dffeb7e	0.124960884
93	0x3c8f97fe	0.01752853
94	0xbce53fb5	-0.02798448
95	0x3dae8a7a	0.08522506
96	0xbe9d5b98	-0.30733943
97	0xbdab9c5a	-0.08379431
98	0xbca2f6f0	-0.01989314
99	0x3e1e1372	0.15437105
100	0xbe6c0d34	-0.23051912
101	0xbd08e98f	-0.033425864
102	0x3d2dbe35	0.042417724
103	0xbe492dba	-0.1964635
104	0x3dbf8b9d	0.09352801
105	0xbe9f3d69	-0.3110154
106	0x3cdb5ed1	0.02677861
107	0x3d2587c1	0.04041267
108	0xbd135b20	-0.035975575
109	0xbe038ec3	-0.12847428
110	0xbd35b850	-0.044365227
111	0xbddd5487	-0.10807138
112	0xbc7e2bf0	-0.015513405
113	0xbd657b80	-0.056025982
114	0xbd057405	-0.032581348
115	0x3dbdbc33	0.09264412
116	0xbd38a5df	-0.045080062
117	0x3c45acbf	0.012065112
118	0xbe0a21f7	-0.13489519
119	0x3dabf5fc	0.08396527
120	0x3d8052a5	0.06265763
121	0xbd3f909e	-0.046768777
122	0x3e2c647f	0.16835211
123	0x3e2e9686	0.17049608
124	0x3d5e8861	0.05432928
125	0x3d71d3a8	0.05903974
126	0xbd4680d5	-0.048462708
127	0x3dc2ba86	0.09508233
128	0xbdb000df	-0.08593916
129	0x3c709fe2	0.0146865565
130	0xbec88508	-0.39163995
131	0x3d6ea050	0.058258355
132	0x3d28a9f4	0.041177705
133	0xbc651c9e	-0.013983874
134	0x3e2ab3ee	0.166702
135	0xbe482370	-0.19544768
136	0xbe2f54eb	-0.17122237
137	0xbd340119	-0.04394636
138	0x3d90a118	0.07061976
139	0x3e1dd722	0.15414098
140	0x3e9ada6d	0.3024477
141	0x3e4d2f12	0.20037487
142	0xbcfdd203	-0.03098393
143	0xbc54e141	-0.012993158
144	0x3d5a8576	0.053349935
145	0xbe0f9fc3	-0.14025788
146	0x3de80d87	0.11330705
147	0xbe077ca0	-0.13231134
148	0x3e5cb0ee	0.21551868
149	0xbd17617d	-0.036958206
150	0x3e44608c	0.19177455
151	0x3d16e736	0.036841594
152	0x3dcd1ca7	0.100152306
153	0x3da0fb78	0.07860464
154	0x3dfa6c1a	0.1222765
155	0x3da781e0	0.081790686
156	0xbe55b5d4	-0.20870143
157	0x3da34f3b	0.079740964
158	0x3e8ca102	0.2746659
159	0x3e33f1b5	0.17572673
160	0xbe43672a	-0.19082323
161	0x3ce623fd	0.028093332
162	0xbc97ea2f	-0.018544285
163	0xbc9d5a8e	-0.019208219
164	0x3d78b588	0.060719997
165	0x3e8b79cd	0.27241364
166	0xbe4c1e8b	-0.19933526
167	0x3cd4a8e7	0.025959445
168	0xbd23466a	-0.039862074
169	0x3daf10c8	0.08548123
170	0xbcad5a58	-0.021161243
171	0xbc6d1b74	-0.014471877
172	0xbe59e7ea	-0.21279874
173	0xbc63372c	-0.0138681345
174	0x3e94c2d1	0.29054883
175	0x3cb61f63	0.022231763
176	0x3dacc2cc	0.08435592
177	0xbe16ada3	-0.14714675
178	0x3d12c667	0.035833742
179	0xbd1f067d	-0.038824547
180	0x3cdbbdad	0.026823843
181	0x3dae452d	0.08509288
182	0x3d1c6f89	0.038192306
183	0xbe1ac75c	-0.15115112
184	0x3c4f824a	0.012665341
185	0x3e4a59a0	0.19760752
186	0xbdc8d1ce	-0.09805642
187	0xbdb2b917	-0.08726709
188	0x3dc9d99b	0.09855958
189	0xbe014b04	-0.12626272
190	0xbc8452d9	-0.016152786
191	0xbe4317a2	-0.19051984
192	0x3cab92b9	0.020943986
193	0xbda2d30a	-0.07950409
194	0x3e1db90b	0.1540262
195	0x3e2b9899	0.1675743
196	0xbd43c811	-0.04779822
197	0x3e31246c	0.1729905
198	0x3d4e18f9	0.050316785
199	0x3e7cc295	0.24683602
200	0xbcaa9420	-0.020822585
201	0x3d188877	0.037239518
202	0xbe3336ce	-0.17501375
203	0xbd05f7e1	-0.0327071
204	0xbe26be5d	-0.16283555
205	0x3e096cdc	0.13420433
206	0x3e53ac9a	0.20671311
207	0x3e733728	0.23751509
208	0xbe6db80c	-0.2321474
209	0xbda9e163	-0.08294942
210	0x3da28778	0.07935995
211	0x3c633ae8	0.013869025
212	0xbda486cc	-0.08033523
213	0x3d2b9d3b	0.041897994
214	0xbe4d591f	-0.20053528
215	0x3e0cb9e6	0.1374279
216	0xbe148b7f	-0.14506339
217	0xbdc96464	-0.09833601
218	0x3dd7da8f	0.105397336
219	0xbe08ca33	-0.13358383
220	0xbd8ef010	-0.06979382
221	0xbc8848c7	-0.016636265
222	0xbe7167e6	-0.2357479
223	0x3e4b54d2	0.19856575
224	0x3e174ceb	0.14775436
225	0xbcb2232d	-0.021745289
226	0x3e0bef16	0.13665423
227	0xbc9c310e	-0.01906636
228	0x3d8035eb	0.06260284
229	0x3d468c2d	0.048473526
230	0xbbd45861	-0.006480262
231	0xbcb5d9cf	-0.022198586
232	0xbd831c00	-0.06401825
233	0xbdae3c3f	-0.08507585
234	0x3e77742a	0.24165407
235	0xbe2c2d60	-0.16814184
236	0xbc53b375	-0.012921204
237	0xbda36538	-0.0797829
238	0x3e2a34ff	0.16621779
239	0xbd1ab5a1	-0.03777087
240	0x3da51963	0.08061483
241	0xbe150ab0	-0.14554858
242	0xbc1dc61b	-0.009629752
243	0x3e2316e7	0.15926705
244	0xbd7576a4	-0.059927598
245	0xbd19c5db	-0.037542205
246	0x3e379307	0.1792718
247	0xbe93bf91	-0.2885709
248	0xbde0a7cb	-0.10969504
249	0x3cac4e2d	0.02103337
250	0xbe77a694	-0.24184638
251	0x3b587d3d	0.0033033632
252	0xbc14554f	-0.009053542
253	0xbd416f24	-0.047225133
254	0xbe997466	-0.29971617
255	0xbd1c81cc	-0.03820972

StatefulPartitionedCall/sequential/dense_1/BiasAdd/ReadVariableOp:0 f4 [64]
0	0xbc838ce8	-0.0160584
1	0xbc8572ae	-0.016290035
2	0xbbdcbc1b	-0.006736291
3	0x3cb11a1a	0.021618892
4	0x3bc94079	0.006141719
5	0xbc77a900	-0.015115976
6	0x3cd0ee1b	0.025504163
7	0xbc441970	-0.011968955
8	0x3cb1264d	0.021624709
9	0x3c1bd2f5	0.009510745
10	0x3c259d6a	0.010108331
11	0xbc830917	-0.015995545
12	0x3c3933be	0.01130384
13	0xbcf9bd85	-0.030485878
14	0x3c993498	0.018701836
15	0x3c1781ae	0.009247227
16	0x3d081ad1	0.0332287
17	0xbcc789c1	-0.024357678
18	0xbc274196	-0.010208508
19	0xbc7c1a65	-0.015387152
20	0xbc9733bc	-0.018457286
21	0xbbb40b10	-0.005494483
22	0xbae6ede7	-0.0017618508
23	0x3c73a05d	0.014869777
24	0x3d04838c	0.032352015
25	0x3c70900a	0.014682779
26	0xbbe15af0	-0.0068772957
27	0xbb9175b3	-0.0044390797
28	0x3d11b9b5	0.035577495
29	0xb9aef92c	-0.00033373514
30	0x3ba3460b	0.004982715
31	0x3d4956f1	0.04915518
32	0xbbd46b55	-0.0064825215
33	0x3cdec837	0.02719508
34	0x3ca71d54	0.020399727
35	0x3c0666dc	0.0082032345
36	0xbcacbcf6	-0.021086197
37	0xbce91210	-0.028450996
38	0x3c9d80a1	0.019226374
39	0x3d9bfb4f	0.07616293
40	0x3be54491	0.006996699
41	0xbca26c54	-0.019827046
42	0x3b99f76b	0.004698684
43	0x3b2204bb	0.0024722058
44	0x3bfbfbd5	0.007689933
45	0x3d5ecb5c	0.054393157
46	0xbd34a430	-0.044101894
47	0xbcf94045	-0.030426154
48	0x3c94c11b	0.018158486
49	0x3c08410e	0.0083162915
50	0x3d2e0842	0.042488344
51	0x3ce8e490	0.0284293
52	0x3c276a75	0.010218252
53	0xbcbb069a	-0.022830296
54	0x3c4dae14	0.0125537105
55	0xbcd49158	-0.025948212
56	0xbc3222df	-0.010872572
57	0xbd17f0a3	-0.037094723
58	0xbc3e9076	-0.011631122
59	0x393ed880	0.00018200465
60	0x3c808386	0.015687715
61	0x3c842147	0.01612915
62	0xbb80560d	-0.003916508
63	0xbcac0e6d	-0.021002972

StatefulPartitionedCall/sequential/dense/MatMul/ReadVariableOp:0 f4 [78, 64]
0	0x3d5edeca	0.054411687
1	0x3da20ed8	0.079129875
2	0xbeb2accb	-0.34897456
3	0x3e153f87	0.14575015
4	0xbeaf6747	-0.34258482
5	0xbec0c381	-0.37649158
6	0xbcf0081f	-0.029300747
7	0x3c91d2f6	0.01780079
8	0x3c1fb1d5	0.009746988
9	0x3db1b56e	0.08677183
10	0x3df250ff	0.11831855
11	0xbb9d9c0d	-0.0048098625
12	0xbe43d883	-0.19125561
13	0xbeabf79a	-0.33587343
14	0x3e06c529	0.13161148
15	0xbef0ef7d	-0.47057715
16	0x3b870025	0.0041198903
17	0xbd8865d2	-0.06660046
18	0x3d0deec0	0.034651518
19	0xbf119006	-0.5686039
20	0x3dacb388	0.0843268
21	0x3d6bdea4	0.057585374
22	0x3e77f8d7	0.24216019
23	0x3e969e0a	0.2941745
24	0xbecb6d78	-0.39731956
25	0xbeb69318	-0.356591
26	0xbd6f9e49	-0.058500562
27	0x3e4b69c6	0.19864568
28	0x3df73270	0.12070167
29	0xbcab9c3e	-0.020948526
30	0x3dd6b838	0.10484356
31	0x3e08935c	0.13337463
32	0xbd9ce891	-0.07661546
33	0x3d99c543	0.07508328
34	0xbec51aa4	-0.38496888
35	0x3d8501d5	0.0649449
36	0xbe3e48bd	-0.18582435
37	0xbd33c5b8	-0.04388973
38	0xbcb7d7e4	-0.022441812
39	0xbe8bebdf	-0.27328393
40	0x3e4b0963	0.198278
41	0xbd74ab55	-0.059733707
42	0x3e86b7f2	0.26312214
43	0x3d7971a0	0.060899377
44	0x3e8d47dc	0.27593887
45	0x3e2a28ec	0.16617173
46	0xbde07031	-0.10958899
47	0xbe3f11b2	-0.18659094
48	0xbdc683ef	-0.09693133
49	0xbf1c72cb	-0.6111266
50	0xbe9a948d	-0.3019146
51	0xbec6b87c	-0.38812625
52	0xba4e9076	-0.0007879803
53	0x3d7c17e5	0.061546225
54	0x3e801b80	0.2502098
55	0x3e6243c4	0.22096163
56	0xbd30c714	-0.043158606
57	0xbd8eb77b	-0.0696859
58	0xbd14136d	-0.03615134
59	0xbe35f4e3	-0.17769198
60	0xbe29cbd7	-0.16581665
61	0xbe147914	-0.14499313
62	0x3de0398c	0.10948476
63	0xbbeaab6b	-0.007161548
64	0x3e1d3044	0.15350443
65	0xbda4d8ba	-0.0804915
66	0xbe99e510	-0.30057573
67	0xbdf4dee0	-0.119565725
68	0xbe52ea49	-0.20597185
69	0x3da765a6	0.08173685
70	0xbe7db6aa	-0.24776712
71	0xbe36a0b1	-0.17834736
72	0xbdfef483	-0.12448981
73	0x3a748009	0.000932694
74	0xbd1b26db	-0.037878852
75	0x3de04e52	0.109524384
76	0x3da75b11	0.081716664
77	0xbe7cf509	-0.24702848
78	0x3e115039	0.14190759
79	0xbed20b90	-0.41024446
80	0xbe13a975	-0.14420111
81	0x3b8d322b	0.004308959
82	0x3ba8f180	0.005155742
83	0x3cc8a0f4	0.02449081
84	0x3d0869f3	0.033304166
85	0xbda023f6	-0.07819359
86	0x3dab1e5c	0.083554
87	0xbd4f4ce0	-0.050610423
88	0xbd4ed3d3	-0.05049498
89	0xbe2cd0a8	-0.16876471
90	0xbe011077	-0.12603937
91	0xbd94353c	-0.07236716
92	0xbe210f96	-0.15728602
93	0x3dfd1ac6	0.12358622
94	0xbe69c68d	-0.22829647
95	0x3de20ed8	0.110379875
96	0xbea9dde5	-0.33177105
97	0x3e16ff4d	0.14745827
98	0xbe1e444d	-0.15455742
99	0x3e333f08	0.17504513
100	0xbb42df4d	-0.0029735148
101	0x3dc72e0f	0.09725582
102	0xbca372b3	-0.019952154
103	0x3ccc4ad8	0.024938032
104	0x3e0341a1	0.12818004
105	0x3e10c890	0.14139009
106	0x3e158747	0.14602385
107	0xbe528d22	-0.2056165
108	0x3e01247c	0.12611574
109	0xbd65a066	-0.05606117
110	0xbeb650eb	-0.3560861
111	0xbe9180f2	-0.2841869
112	0x3dac8c24	0.08425167
113	0xbe34c061	-0.17651512
114	0x3e0731f2	0.13202646
115	0xbe8ed55d	-0.27897158
116	0xbe9fd580	-0.31217575
117	0x3e15a935	0.14615329
118	0xbe09a243	-0.13440804
119	0x3c5b2c1d	0.013377217
120	0xbdf53510	-0.119730115
121	0x3d36601f	0.044525262
122	0x3dd2d23a	0.10294004
123	0x3d8668b6	0.06562941
124	0xbdcc5ad0	-0.099782586
125	0xbd2b572e	-0.041831188
126	0xbdd1d1d1	-0.102450974
127	0xbdbbd8e7	-0.0917223
128	0x3e049710	0.12948251
129	0x3d224448	0.0396159
130	0x3d8824dd	0.06647656
131	0x3da9683e	0.08271836
132	0x3d1befb9	0.038070414
133	0xbd699a3b	-0.05703185
134	0x3dde8677	0.10865491
135	0xbdccb31c	-0.099951
136	0xbae9883c	-0.001781709
137	0x3d60e36e	0.054904394
138	0xbc5044dd	-0.012711731
139	0xbe099bb0	-0.13438296
140	0x3d72dc74	0.05929227
141	0xbe241191	-0.16022326
142	0x3d366824	0.04453291
143	0xbd105533	-0.035237502
144	0xbd824fff	-0.06362914
145	0xbd8e36f6	-0.06944077
146	0xbdcaabcd	-0.0989605
147	0x3c9b405d	0.01895159
148	0x3e5b0fe1	0.21392776
149	0x3c690f08	0.014224775
150	0xbe0240d3	-0.12720041
151	0x3d7a7579	0.061147187
152	0xbd612883	-0.054970276
153	0x3bfae9a0	0.007657245
154	0x3d6f5022	0.05842603
155	0x3c69bbab	0.014265935
156	0xbd6de12e	-0.058076076
157	0x3d62529c	0.055254564
158	0x3db05e59	0.086117454
159	0xbe58bdeb	-0.21166198
160	0xbd567f7a	-0.052367665
161	0x3d425bc8	0.04745081
162	0x3e0d872e	0.13821098
163	0xbd3f8432	-0.04675693
164	0x3d0de80f	0.034645136
165	0xbb50b6d3	-0.0031847253
166	0xbe2a4781	-0.16628839
167	0x3da02f5f	0.07821535
168	0x3e387f81	0.18017389
169	0xbdb2fc9d	-0.087395884
170	0xbb20a33d	-0.002451136
171	0xbde25e07	-0.110530905
172	0x3d9e3f5f	0.07726931
173	0xbd1c84e6	-0.03821268
174	0x3c175f01	0.009238959
175	0xbb9aaa7f	-0.0047200317
176	0xbd961eda	-0.07330103
177	0xbda4699b	-0.08027955
178	0x3e08646b	0.13319556
179	0xbb24aa55	-0.002512594
180	0x3dd964f4	0.106149584
181	0xbb8e2bad	-0.0043387027
182	0x3d1ef6ee	0.03880971
183	0xbdcce0b0	-0.10003793
184	0xbde4ee1b	-0.111782275
185	0xbe015c30	-0.12632823
186	0x3d154b8e	0.036449008
187	0x3cc46437	0.023973567
188	0xbdf497bd	-0.11943004
189	0xbc9fea55	-0.019520918
190	0x3d8a0ffd	0.06741331
191	0xbd70f4cc	-0.058827206
192	0xc038b3c6	-2.8859725
193	0x40550a71	3.3287623
194	0xc0848b95	-4.142039
195	0x40821237	4.0647235
196	0xc05b4983	-3.4263618
197	0xc0651841	-3.5796053
198	0xc09039a8	-4.507038
199	0xc06353a9	-3.5519812
200	0xc07cad95	-3.9480946
201	0x3e7b49e1	0.24539901
202	0x409371e3	4.607652
203	0xbf8e9a20	-1.1140785
204	0x402b4cd6	2.6765647
205	0xc03eeee8	-2.9833317
206	0x408f3537	4.475246
207	0xc093fec1	-4.624848
208	0x408fa825	4.4892755
209	0xc04d5538	-3.2083263
210	0xbe110788	-0.14163029
211	0xc079280d	-3.8930695
212	0x3fc29fe9	1.5205051
213	0x407e4d50	3.9734688
214	0xc047093e	-3.109939
215	0x4084d501	4.1510015
216	0xc04063be	-3.0060878
217	0xc06451da	-3.5674958
218	0xc049a734	-3.1508303
219	0x40942add	4.6302323
220	0xbf897f37	-1.0741948
221	0x4072ddfa	3.7947984
222	0xc03d8ab4	-2.9615908
223	0x40766913	3.8501632
224	0xc08d028a	-4.40656
225	0x4086f910	4.217903
226	0xc052eac8	-3.29558
227	0xbfaa2dc2	-1.3295214
228	0xc08ff83e	-4.499053
229	0x407045a3	3.7542503
230	0x408d0c61	4.407761
231	0xc0909fe8	-4.51952
232	0x407b4e98	3.926672
233	0xc0306631	-2.7562373
234	0x408acf28	4.3377876
235	0xc02731a2	-2.6124043
236	0x408a5a6b	4.3235373
237	0x40737ada	3.8043733
238	0xc09574f9	-4.670529
239	0xc0616817	-3.5219781
240	0xc05259b2	-3.2867246
241	0xc065d1c0	-3.5909271
242	0xbf26ed38	-0.6520572
243	0xc063cfc5	-3.5595562
244	0xc08b5137	-4.353664
245	0xbf68e0f6	-0.90968263
246	0x3e8d0b58	0.27547717
247	0x408a1912	4.3155603
248	0xbf864449	-1.0489589
249	0xc0683c9d	-3.6286995
250	0xc080997b	-4.0187354
251	0xc002b05e	-2.0420146
252	0xc0451713	-3.0795333
253	0xc05c93fe	-3.4465327
254	0xc05fe7da	-3.498526
255	0x40862d79	4.193051

StatefulPartitionedCall/sequential/dense/BiasAdd/ReadVariableOp:0 f4 [64]
0	0xbc62cc6b	-0.013842682
1	0x3d089c72	0.033352323
2	0xbd093dab	-0.033506077
3	0x3c030cbe	0.007998643
4	0x3c3da509	0.011574992
5	0x3caef992	0.021359239
6	0x3be05e65	0.00684719
7	0xbb8ec395	-0.0043568113
8	0xbc4e0c03	-0.012576106
9	0xbc33de93	-0.010978359
10	0xbca3720e	-0.019951846
11	0xbd13bb92	-0.036067553
12	0xbcade68f	-0.021228103
13	0xbc14f5e8	-0.009091832
14	0x3ca6746d	0.020319188
15	0xbd44d0ee	-0.048050813
16	0x3b214ca1	0.0024612325
17	0x3d340acd	0.043955613
18	0x00000000	0.0
19	0x3c0e56a9	0.008687654
20	0xbcd6b649	-0.026209967
21	0x3cdec706	0.027194511
22	0xbb8b88d6	-0.0042582555
23	0x3d2cba03	0.042169582
24	0x3c8128f0	0.01576659
25	0xbd2b0d79	-0.041760895
26	0xbbf6fa51	-0.0075371643
27	0xba3a1f22	-0.0007099976
28	0xbc318b39	-0.010836416
29	0xbcdc2917	-0.026875062
30	0xbae35df6	-0.0017346728
31	0xbd16126c	-0.036638662
32	0xbd0f21a0	-0.034944177
33	0x3d0dd854	0.034630135
34	0xbb41a793	-0.0029549345
35	0x3c5dead2	0.013544755
36	0x38202ee8	3.8190658e-05
37	0xbc388b96	-0.011263749
38	0xbd079812	-0.03310401
39	0x3cc2ad10	0.023764163
40	0xbd0b5032	-0.034012027
41	0xbb882fb4	-0.0041560773
42	0xbd22fcd5	-0.0397919
43	0x3cd4d2d6	0.02597944
44	0x3d0736f6	0.0330114
45	0xbd16bd4b	-0.036801618
46	0x3ccff733	0.025386428
47	0x3c6dfd64	0.014525745
48	0x3d085cb8	0.03329155
49	0xbc6a360a	-0.0142951105
50	0xbc3626be	-0.011117635
51	0xbd18d681	-0.037313942
52	0xbc853b59	-0.01626365
53	0x3cc543b7	0.02408014
54	0x3b6904bb	0.0035555798
55	0x3c0a60c5	0.008445923
56	0xbac58298	-0.0015068827
57	0x3c0bfa38	0.0085435435
58	0x3c2089ca	0.0097984765
59	0x3b6103ea	0.0034334608
60	0x3bbe1365	0.005800652
61	0x3b945d98	0.004527759
62	0xbcec3b81	-0.028836967
63	0x3d4bf696	0.04979571
