kees_code/final_model/models/classifier_SF_inZ.onnx (onnx, 56974 bytes, 7 tensors)

StatefulPartitionedCall/sequential/dense_3/MatMul/ReadVariableOp:0 f4 [64, 1]
-0.19340453 0.24164309 -0.2879024 -0.32771933 -0.24073476 -0.79940844 -0.4822569 0.48610932
0.4093903 0.65759856 -0.21583045 0.24015023 -0.8283363 -0.34955657 -0.38819435 0.4256907
0.5259994 -0.27446538 -0.3154875 -0.38170114 0.31156042 -0.43903393 0.27668318 0.57876074
-0.20808774 -0.27924368 0.45295504 0.6279149 -0.4581334 0.5332155 0.47945756 0.33594042
-0.22814843 0.5969283 -0.47654784 -0.39160532 -0.21204968 -0.06265286 -0.30766636 0.4831755
0.32285705 0.37787744 0.31948066 0.34443775 -0.32833102 0.3235628 -0.40971512 0.35343874
-0.27274185 -0.29255706 -0.2544691 -0.28283328 0.44252366 0.5487924 -0.27118167 -0.29597798
0.284648 0.51374155 -0.29663217 -0.4167199 -0.2592111 -0.38194904 -0.24105737 0.29606864
00000000: d60b 46be 4971 773e f267 93be d4ca a7be
00000010: 2c83 76be 08a6 4cbf 60ea f6be 52e3 f83e
00000020: 9b9b d13e 6158 283f a802 5dbe f1e9 753e
00000030: d90d 54bf 14f9 b2be 69c1 c6be 22f4 d93e
00000040: e6a7 063f ba86 8cbe 9487 a1be 556e c3be
00000050: d984 9f3e 0ec9 e0be 6ba9 8d3e aa29 143f
00000060: f414 55be 07f9 8ebe b9e9 e73e 08bf 203f
00000070: 7690 eabe d080 083f 767b f53e 6200 ac3e
00000080: be9f 69be 4bd0 183f 14fe f3be 7e80 c8be
00000090: 8d23 59be 2550 80bd 7286 9dbe c762 f73e
000000a0: 854d a53e 2779 c13e f892 a33e 255a b03e
000000b0: 011b a8be 06aa a53e 2ec6 d1be ecf5 b43e
000000c0: d2a4 8bbe 0aca 95be c649 82be 86cf 90be
000000d0: 7692 e23e a97d 0c3f 53d8 8abe 6d8a 97be
000000e0: 62bd 913e 9184 033f 2ce0 97be 505c d5be
000000f0: 51b7 84be d38e c3be bed7 76be 4f96 973e

StatefulPartitionedCall/sequential/dense_2/MatMul/ReadVariableOp:0 f4 [64, 64]
-0.11159384 -0.0668592 -0.2017775 -0.2795005 -0.28057742 0.35413355 -0.028422177 0.1771983
-0.059920345 0.32162315 -0.11345854 0.21644704 0.35125515 -0.008071975 -0.22359467 0.23930097
0.028674921 -0.33296102 0.077646814 -0.31337154 0.38370335 -0.28793645 0.31760094 0.018734042
-0.098800294 -0.020753488 0.18409495 0.2649521 -0.12538767 0.34061342 0.30968952 0.21880236
-0.20206006 0.32946554 -0.020008676 -0.06623573 -0.19687119 -0.20146763 -0.3633758 0.27869368
-0.073731616 -0.27909485 0.25380197 -0.06173755 -0.062580734 0.3032679 -0.22634988 0.3043966
-0.079677895 -0.06627641 -0.35035205 -0.26063812 -0.09785187 0.23911463 -0.24503544 -0.053696796
0.15434605 0.33330166 -0.28062388 -0.18614885 -0.23311247 0.035296116 -0.14542888 0.31512684
-0.052282907 0.09548611 0.21893597 0.29431343 -0.009528057 -0.14671174 0.15281947 0.062452022
-0.1712455 -0.13048843 0.23945074 -0.2808954 0.09624435 0.3235044 0.042808507 0.10769528
-0.058477297 0.31641617 0.056645513 0.09851099 -0.014421402 0.033935368 -0.23904787 0.044343095
0.2621259 0.005294393 -0.13417767 -0.078484215 0.24604285 -0.114391334 -0.09693207 0.03240476
0.098582804 -0.24831565 0.23049833 0.015943693 -0.03435573 0.021899065 0.19781238 0.10072046
0.0012827907 -0.25039187 -0.2660336 -0.13002737 0.04575816 -0.098221354 0.06412666 -0.036043715
0.21932468 0.20155086 0.24918722 0.002963178 0.08465724 -0.25485125 0.15946245 0.14120704
-0.23368032 -0.109461196 0.10741085 0.18645957 0.14546894 0.2581975 0.130476 0.046239823
0.16866605 0.0978074 0.10474047 0.09693035 -0.00016929081 0.082823865 0.22660886 0.10502532
0.005320244 0.076685354 0.02734438 0.07802436 0.04791623 -0.06904759 0.07746747 -0.04914322
0.036518738 0.08637554 -0.0018449485 0.1273604 0.15924026 0.02293461 -0.16899307 0.05049244
-0.020353016 0.18333472 -0.07015531 0.15146895 0.08153781 0.16940068 0.07144458 0.13919394
0.014723648 0.1482186 0.09360331 0.16589262 0.21181385 -0.020228213 0.15628767 0.027868044
-0.17099644 -0.26604557 -0.099040486 0.066737846 0.21450114 0.05898653 0.20276396 -0.12049414
-0.0031374202 -0.0050272075 0.24963176 0.05053508 -0.011094651 -0.10975602 0.19895792 0.16463152
-0.21340963 -0.08301689 0.17448728 0.2247006 0.23702587 0.22215801 -0.12004361 0.044852834
0.0011826938 -0.06923829 0.2243833 0.03616286 0.02726603 0.097808294 0.07733665 -0.0032183437
0.07928309 -0.1542972 0.29847223 -0.052126765 -0.121840514 0.26833394 0.027242292 -0.09096865
-0.058454264 0.1379371 0.025239198 0.09431304 -0.081068076 0.01937847 0.035013527 0.04448296
0.0355926 -0.0328281 0.12186802 0.1306669 0.26618883 -0.20078406 0.054296546 -0.08706618
0.19779664 0.043783925 0.14067346 -0.03426702 0.14342903 0.17389105 -0.071601935 0.03158461
-0.10970601 -0.019334901 0.07445399 0.11841986 0.21249701 -0.058624435 0.19176622 0.08072474
0.04391291 0.043659896 0.054308817 0.10255738 -0.05459681 -0.08486101 0.22820826 0.05975533
-0.21275228 -0.06716183 0.03843855 0.3080878 0.31879178 0.032000925 0.23206426 -0.17788851
00000000: 508b e4bd 7aed 88bd c39e 4ebe b11a 8fbe
00000010: d8a7 8fbe fe50 b53e a0d5 e8bc 7973 353e
00000020: 096f 75bd caab a43e f35c e8bd 4ba4 5d3e
00000030: b7d7 b33e 5140 04bc 00f6 64be 500b 753e
00000040: abe7 ea3c de79 aabe 4b05 9f3d 3c72 a0be
00000050: c474 c43e 686c 93be 979c a23e 2278 993c
00000060: cf57 cabd 3803 aabc 6383 3c3e cda7 873e
00000070: a065 00be e264 ae3e a08f 9e3e ba0d 603e
00000080: d5e8 4ebe b5af a83e 3ce9 a3bc 99a6 87bd
00000090: 9a98 49be 884d 4ebe 650c babe f0b0 8e3e
000000a0: 9a00 97bd 85e5 8ebe 55f2 813e 83e0 7cbd
000000b0: 542a 80bd ee45 9b3e 43c8 67be dfd9 9b3e
000000c0: 2a2e a3bd edbb 87bd 5861 b3be 5c72 85be
000000d0: 9066 c8bd 77da 743e 92ea 7abe 2cf1 5bbd
000000e0: e40c 1e3e 84a6 aa3e efad 8fbe ce9d 3ebe
000000f0: 09b5 6ebe a992 103d 4feb 14be 4e58 a13e
00000100: 9a26 56bd 398e c33d c030 603e 40b0 963e
00000110: 911b 1cbc 9a3b 16be b57c 1c3e b1cd 7f3d
00000120: fb5a 2fbe c29e 05be 9332 753e 86d1 8fbe
00000130: c21b c53d 5ea2 a53e f957 2f3d 588f dc3d
00000140: e485 6fbd 4d01 a23e 2005 683d 21c0 c93d
00000150: be47 6cbc d0ff 0a3d f7c8 74be 1ba1 353d
00000160: 5e35 863e 967c ad3b df65 09be 55bc a0bd
00000170: a8f2 7b3e 0146 eabd 5284 c6bd dbba 043d
00000180: c8e5 c93d 7546 7ebe c107 6c3e 599c 823c
00000190: 98b8 0cbd ab65 b33c 548f 4a3e 8746 ce3d
000001a0: 5023 a83a 5d33 80be 8e35 88be e525 05be
000001b0: e96c 3b3d 4728 c9bd d754 833d 93a2 13bd
000001c0: a696 603e 5963 4e3e ef2a 7f3e e131 423b
000001d0: c660 ad3d dd7b 82be 204a 233e 9498 103e
000001e0: e549 6fbe 312d e0bd 38fa db3d 42ef 3e3e
000001f0: cff5 143e 7632 843e 809b 053e f865 3d3d
00000200: cbb6 2c3e 3f4f c83d 2c82 d63d 6b83 c63d
00000210: a883 31b9 8f9f a93d 270c 683e 8417 d73d
00000220: 7155 ae3b 360d 9d3d 5201 e03c 3ccb 9f3d
00000230: cf43 443d d368 8dbd 44a7 9e3d 674a 49bd
00000240: ac94 153d a9e5 b03d 33d2 f1ba c46a 023e
00000250: e10f 233e 5de1 bb3c 850c 2dbe 29d1 4e3d
00000260: 5ebb a6bc 19bc 3b3e 96ad 8fbd ad1a 1b3e
00000270: 4cfd a63d 5f77 2d3e 8951 923d db88 0e3e
00000280: 753b 713c 9ec6 173e 18b3 bf3d c1df 293e
00000290: bbe5 583e a3b5 a5bc e009 203e 864b e43c
000002a0: b119 2fbe 2037 88be bdd5 cabd daad 883d
000002b0: 30a6 5b3e dc9b 713d 5ba1 4f3e a2c5 f6bd
000002c0: 2d9d 4dbb 46bb a4bb 789f 7f3e dffd 4e3d
000002d0: 57c6 35bc c4c7 e0bd a0bb 4b3e 2a95 283e
000002e0: 0e88 5abe c204 aabd cbac 323e ea17 663e
000002f0: e9b6 723e 647d 633e 6dd9 f5bd 9bb7 373d
00000300: 9e04 9b3a cecc 8dbd bcc4 653e 821f 143d
00000310: 025d df3c b74f c83d ad62 9e3d d9ea 52bb
00000320: 2c5f a23d 1600 1ebe 5ad1 983e e082 55bd
00000330: 8587 f9bd 1163 893e 3a2b df3c c64d babd
00000340: bd6d 6fbd 623f 0d3e 6fc2 ce3c 3227 c13d
00000350: 0507 a6bd 99bf 9e3c 586a 0f3d c433 363d
00000360: 8cc9 113d c276 06bd f195 f93d 8bcd 053e
00000370: e749 883e 569a 4dbe 0e66 5e3d c14f b2bd
00000380: 348b 4a3e c656 333d b40c 103e 935b 0cbd
00000390: 0fdf 123e 7f10 323e 09a4 92bd dd5e 013d
000003a0: 8bad e0bd 3a64 9ebc 557b 983d 1d86 f23d
000003b0: d198 593e 2d20 70bd 5d5e 443e 0353 a53d
000003c0: 06de 333d b8d4 323d ec72 5e3d 9b09 d23d
000003d0: e8a0 5fbd 9ccb adbd 6daf 693e 01c2 743d
000003e0: bcdb 59be 248c 89bd be71 1d3d afbd 9d3e
000003f0: ad38 a33e 6713 033d 41a2 6d3e 6828 36be

StatefulPartitionedCall/sequential/dense_2/BiasAdd/ReadVariableOp:0 f4 [64]
0.103467084 0.021505497 0.08144305 0.080708355 0.10093242 -0.20513767 0.061139647 0.020156944
0.0029906011 -0.028229712 0.069717795 0.03919 -0.27939096 0.08166984 0.07512624 0.024960095
0.039997198 0.08501945 0.008330666 0.07394124 -0.021525385 0.068125285 0.09922031 -0.0011214054
0.10174402 0.11704767 0.0474126 -0.0052656936 0.095871784 0.017397666 0.010933842 0.06506877
0.07755968 -0.00087417685 0.06903463 0.059473366 0.07981507 0.026350584 0.103735186 0.007749161
0.0033708815 0.02448127 0.07687168 0.03619361 0.09751296 0.042535167 0.061735086 0.07013356
0.098403394 0.08824378 0.091324024 0.14510502 0.04146156 0.021015089 0.06391669 0.078619406
0.06519631 0.03784972 0.091843694 0.065064624 0.077166185 0.075205885 0.06907093 0.049065556
00000000: 8de6 d33d 4c2c b03c 9dcb a63d 6c4a a53d
00000010: a8b5 ce3d 9c0f 52be 916d 7a3d 2d20 a53c
00000020: f6fd 433b ff41 e7bc 34c8 8e3d b285 203d
00000030: 550c 8fbe 8442 a73d c9db 993d 1d79 cc3c
00000040: 1ad4 233d ad1e ae3d 597d 083c 816e 973d
00000050: 0156 b0bc 4585 8b3d 0534 cb3d 1ffc 92ba
00000060: 2b5f d03d b0b6 ef3d b733 423d d78b acbb
00000070: 6d58 c43d 8d85 8e3c db23 333c c642 853d
00000080: 9cd7 9e3d 0429 65ba 0762 8d3d 589a 733d
00000090: 1576 a33d 2edd d73c 1d73 d43d adec fd3b
000000a0: 02ea 5c3b f28c c83c e66e 9d3d c03f 143d
000000b0: e0b4 c73d 5b39 2e3d eedd 7c3d 2fa2 8f3d
000000c0: b887 c93d 28b9 b43d 1708 bb3d 6996 143e
000000d0: 99d3 293d d627 ac3c c1e6 823d 3603 a13d
000000e0: a585 853d 4f08 1b3d 8c18 bc3d 9a40 853d
000000f0: 4e09 9e3d 8b05 9a3d 0f75 8d3d f7f8 483d

StatefulPartitionedCall/sequential/dense_1/MatMul/ReadVariableOp:0 f4 [64, 64]
0.19271137 0.009476794 0.073511034 0.18997955 0.025612175 0.08780043 0.07044379 0.043246966
-0.17393398 -0.16624498 0.13915986 -0.20339467 0.1968192 -0.30072248 -0.4916784 0.09809544
-0.0022148644 -0.109081365 -0.1496246 0.081234254 0.073653914 0.10333959 0.1720189 -0.07514275
0.2583638 -0.00567769 -0.02981601 -0.04421595 -0.012663388 -0.06853517 -0.055698045 -0.05386269
-0.25094968 -0.043899983 -0.05171489 0.16903493 -0.038803324 0.07084115 0.21824087 0.13894792
0.13336276 0.07093124 0.06117635 -0.12079118 0.20105118 -0.12408201 0.20011796 -0.028287746
-0.114896074 -0.10414885 0.04566428 0.0387103 0.05919903 -0.102311276 0.103540905 0.016945554
-0.12536831 -0.074598685 0.047761627 -0.02350247 0.25412592 -0.015246974 0.047731802 -0.14741436
0.07601789 -0.033316966 -0.046251018 0.2042692 -0.18504158 0.0799381 0.051268406 0.13183679
-0.29088113 -0.0022250873 -0.06396954 0.09467967 0.24000081 -0.19619936 -0.04983716 0.07721085
0.08662439 0.08353957 -0.27579695 0.19776407 -0.17592624 -0.12526813 -0.23920211 0.1699139
0.026655367 0.044244964 0.23885214 0.03453113 0.2593428 0.016218 0.15238082 -0.066052966
0.12118775 -0.0437515 0.034273904 0.0059271525 -0.06807087 -0.20380007 -0.23693374 -0.2183529
0.2276588 0.18858893 0.21010071 0.00941237 0.055621237 -0.24762344 -0.07612373 -0.18207869
-0.04660871 0.25547895 -0.07135993 0.17641836 -0.12043435 -0.11263556 0.23677494 -0.042169157
-0.00911058 -0.12077477 0.03925281 0.1814688 -0.068705976 -0.14887634 0.11992798 -0.21304004
0.12911582 -0.091261044 0.20004226 0.14670594 -0.18822308 -0.07829111 0.08286402 0.19007404
-0.028636139 -0.09324864 0.13849166 -0.028809289 0.012243903 -0.105011694 0.012162617 0.1622303
-0.06888052 -0.014987136 -0.015523165 -0.04994844 -0.017053477 -0.086730026 -0.032045063 0.07436868
0.17062677 0.10802839 -0.14281721 -0.114895836 0.17153667 -0.07700276 0.11740893 0.15461041
0.08328343 -0.15799321 0.05030103 -0.104001604 -0.12384199 -0.06486917 -0.23693165 0.22774693
0.07676211 0.08903017 0.07531245 0.16875565 -0.16066238 -0.22096346 -0.09265228 0.07790965
0.22750211 -0.016194934 0.21369977 0.12592836 0.14535071 -0.14343375 -0.088010095 0.13962111
0.1389353 0.104901694 -0.16144381 -0.06777786 0.06262891 0.0465624 -0.011259415 -0.10503059
-0.1048465 -0.11879572 -0.26473588 0.09120397 0.24814 -0.13940984 -0.27056792 -0.16414064
-0.19353105 -0.005822735 0.13923486 -0.002964039 -0.027308825 -0.07789685 0.13662721 0.019454215
-0.2183226 -0.06512054 0.12331319 -0.10471399 -0.101981856 -0.10206403 0.018538162 -0.28956816
-0.13543025 0.16700971 0.2375126 -0.00513139 -0.21201058 -0.17366353 0.100386225 -0.18619567
0.045057632 -0.0997489 -0.13642754 -0.21485022 0.14259973 -0.007476178 -0.009868547 0.02631469
-0.05388032 0.12547474 -0.12017739 0.12218303 0.052201018 0.12861638 -0.021813013 -0.16683514
0.15222208 -0.22970769 -0.026785435 -0.17125612 0.10454047 -0.2619952 0.09166666 0.14828877
-0.2535383 -0.08413877 0.03181792 -0.10547062 -0.005080955 -0.22203848 -0.20959651 -0.24318624
00000000: 2156 453e 8e44 1b3c f48c 963d 008a 423e
00000010: a0d0 d13c b6d0 b33d d544 903d bb23 313d
00000020: c01b 32be 203c 2abe ec7f 0e3e b146 50be
00000030: f98a 493e 4cf8 99be 45bd fbbe 43e6 c83d
00000040: 4227 11bb 0d66 dfbd 3137 19be 255e a63d
00000050: ddd7 963d b5a3 d33d b925 303e 71e4 99bd
00000060: 4348 843e ea0b babb b440 f4bc c91b 35bd
00000070: 197a 4fbc 2b5c 8cbd a223 64bd 209f 5cbd
00000080: 7a7c 80be 78d0 33bd fed2 53bd 7e17 2d3e
00000090: 3cf0 1ebd 2a15 913d 897a 5f3e 5d48 0e3e
000000a0: 3f90 083e 6644 913d 0d94 7a3d 5e61 f7bd
000000b0: 5ce0 4d3e b51e febd b9eb 4c3e b4bb e7bc
000000c0: a24e ebbd fe4b d5bd 780a 3b3d b18e 1e3d
000000d0: af7a 723d 9388 d1bd 410d d43d 67d1 8a3c
000000e0: 8d60 00be 32c7 98bd b2a1 433d 4188 c0bc
000000f0: cb1c 823e 72ce 79bc 6c82 433d caf3 16be
00000100: 44af 9b3d 5f77 08bd b571 3dbd f22b 513e
00000110: 8a7b 3dbe 96b6 a33d d2fe 513d 3900 073e
00000120: 5fee 94be c5d2 11bb 7602 83bd 6ae7 c13d
00000130: c6c2 753e 7ce8 48be 0d22 4cbd b920 9e3d
00000140: 2168 b13d cb16 ab3d 4235 8dbe aa82 4a3e
00000150: 0226 34be 4a46 00be 66f1 74be e9fd 2d3e
00000160: 5b5c da3c 353a 353d a895 743e 8470 0d3d
00000170: 94c8 843e 9cdb 843c b809 1c3e c746 87bd
00000180: 4831 f83d c634 33bd cb62 0c3d 8f38 c23b
00000190: be68 8bbd f7b0 50be c29e 72be e797 5fbe
000001a0: 631f 693e 751d 413e a424 573e 5736 1a3c
000001b0: 18d3 633d 0091 7dbe c2e6 9bbd d672 3abe
000001c0: c6e8 3ebd 23ce 823e 2825 92bd 04a7 343e
000001d0: 49a6 f6bd 79ad e6bd 2175 723e 91b9 2cbd
000001e0: 8b44 15bc c358 f7bd 8ec7 203d f5d2 393e
000001f0: b8b5 8cbd 0a73 18be cd9c f53d 2b27 5abe
00000200: f036 043e 12e7 babd e1d7 4c3e 153a 163e
00000210: 8dbd 40be 1757 a0bd 9cb4 a93d c5a2 423e
00000220: 5696 eabc 25f9 bebd c2d0 0d3e 7501 ecbc
00000230: a79a 483c 5f10 d7bd b745 473c b31f 263e
00000240: 3b11 8dbd 9b8c 75bc e054 7ebc bc96 4cbd
00000250: bcb3 8bbc 839f b1bd af41 03bd 9b4e 983d
00000260: c9b8 2e3e fd3d dd3d ad3e 12be 824e ebbd
00000270: 4fa7 2f3e 9fb3 9dbd 1874 f03d 3152 1e3e
00000280: 8190 aa3d f9c8 21be 7408 4e3d cbfe d4bd
00000290: dfa0 fdbd 21da 84bd 369e 72be 7e36 693e
000002a0: 7435 9d3d 7355 b63d 6a3d 9a3d 48ce 2c3e
000002b0: ae84 24be 3f44 62be 7bc0 bdbd 188f 9f3d
000002c0: 50f6 683e 3dab 84bc 1dd4 5a3e 5df3 003e
000002d0: d1d6 143e 4ce0 12be a33e b4bd d6f8 0e3e
000002e0: 0e45 0e3e b3d6 d63d 8751 25be 1ecf 8abd
000002f0: 9643 803d 37b8 3e3d 6979 38bc 471a d7bd
00000300: c3b9 d6bd 2c4b f3bd 768b 87be 26c9 ba3d
00000310: 6a18 7e3e 74c1 0ebe e187 8abe 7c14 28be
00000320: 012d 46be a4cc bebb 9593 0e3e 5340 42bb
00000330: c2b6 dfbc 6288 9fbd 01e8 0b3e 725e 9f3c
00000340: f68f 5fbe eb5d 85bd a08b fc3d 4a74 d6bd
00000350: dddb d0bd f206 d1bd 58dd 973c 4742 94be
00000360: 3aae 0abe 9804 2b3e 8136 733e 3825 a8bb
00000370: 4d19 59be dad4 31be 4b97 cd3d 14aa 3ebe
00000380: 5a8e 383d 2749 ccbd a9b3 0bbe b201 5cbe
00000390: aa05 123e bafa f4bb b0af 21bc e891 d73c
000003a0: 9cb1 5cbd 737c 003e 901f f6bd 193b fa3d
000003b0: bcd0 553d 03b4 033e 34b1 b2bc d5d6 2abe
000003c0: 1be0 1b3e 7e38 6bbe 216d dbbc c45d 2fbe
000003d0: 5019 d63d 3c24 86be bbbb bb3d 03d9 173e
000003e0: c6cf 81be f350 acbd 8253 023d fb00 d8bd
000003f0: 247e a6bb 0e5e 63be 78a0 56be d005 79be

StatefulPartitionedCall/sequential/dense_1/BiasAdd/ReadVariableOp:0 f4 [64]
-0.020643214 -0.011689713 -0.037478507 -0.037251372 0.020153204 -0.018006856 -0.02567655 -0.01913816
0.0077185803 -0.0021928144 -0.018910646 0.017357908 -0.030627051 -0.012485051 0.023976285 -0.05493435
0.022926074 0.0022473056 -0.03896533 -0.0074913586 -0.0034556754 -0.0019150848 0.0024653783 0.0039921277
-0.009604328 -0.051467627 -0.024133738 0.00928509 -0.034316424 -0.009359613 0.008393426 0.0015926491
0.04505091 -0.005478837 0.033324037 -0.04636258 -0.051602297 -0.0031843279 -0.02434651 0.009180949
-0.030602846 0.029785305 -0.014308393 -0.020417638 -0.025535254 -0.025096849 -0.012360783 -0.01973743
-0.015986959 -0.011661614 -0.0067238407 -0.043529816 -0.020420711 -0.04607623 -0.029724954 -0.027691819
-0.014647276 0.013449615 0.03743823 -0.036103256 -0.011990597 -0.019938141 0.022776894 -0.018831406
00000000: f51b a9bc 3686 3fbc 1083 19bd e594 18bd
00000010: 5518 a53c 1d83 93bc a157 d2bc a1c7 9cbc
00000020: 25ec fc3b 52b5 0fbb 80ea 9abc 2c32 8e3c
00000030: 95e5 fabc 198e 4cbc ea69 c43c d702 61bd
00000040: 76cf bb3c 8847 133b 1c9a 1fbd 127a f5bb
00000050: 9d78 62bb 9503 fbba 2f92 213b 65d0 823b
00000060: 795b 1dbc b8cf 52bd 1eb4 c5bc 7d20 183c
00000070: 618f 0cbd 1059 19bc 9584 093c 70c0 d03a
00000080: 4e87 383d d187 b3bb c97e 083d b0e6 3dbd
00000090: ee5c 53bd 28b0 50bb 5572 c7bc b16b 163c
000000a0: d2b2 fabc 5000 f43c c06d 6abc e442 a7bc
000000b0: 4f2f d1bc e897 cdbc e284 4abc 64b0 a1bc
000000c0: 15f7 82bc 5b10 3fbc aa53 dcbb 524c 32bd
000000d0: 5649 a7bc 6eba 3cbd bf81 f3bc f4d9 e2bc
000000e0: 21fb 6fbc c65b 5c3c d458 193d 02e1 13bd
000000f0: 3574 44bc 5055 a3bc 9c96 ba3c 5244 9abc

StatefulPartitionedCall/sequential/dense/MatMul/ReadVariableOp:0 f4 [78, 64]
-0.14091602 -0.7331309 -0.29136282 1.1590066 -0.3654267 0.553951 -0.41118634 0.14810073
-0.6377542 0.18890122 -0.14741255 0.46744832 -0.6794902 -0.46243107 -0.004531835 0.56152505
0.27022225 -0.07767793 -0.27482018 -1.1903354 -0.11582666 0.69666195 -1.1838653 -0.7135373
-0.58537763 -0.3646047 0.6472618 -0.9257045 -0.15727086 -0.5345984 -0.82605875 0.20821401
-1.0511733 -0.6185871 -0.21580586 -1.1782074 -0.51744837 0.15691902 -1.0854411 0.5076205
-0.689055 -0.9072221 -1.1433985 -0.9653829 -0.9078061 -0.07701811 -0.96752876 0.43313846
-1.3704392 -0.75118846 0.35874265 0.020276545 -0.81894237 -0.5048215 -1.1896151 -0.2145979
0.065452784 -0.88407695 0.061972525 -0.2966087 -0.9076035 -0.14325927 -0.15889792 0.11277026
0.1697145 0.086604595 -0.2138688 0.0066326545 -0.1922049 0.10543301 -0.118846916 0.016972134
0.17510267 0.06623966 -0.17616662 0.17701092 0.0629978 -0.020507203 0.033935778 0.20177312
-0.047482844 0.10386428 -0.1422988 -0.24761999 0.06997454 0.18933037 -0.14480072 -0.13995999
-0.16239516 -0.20424344 0.029027687 -0.094396524 -0.15240838 0.009008915 -0.04200023 0.14492685
0.020623842 -0.13985991 0.08256678 -0.20574099 -0.14258365 -0.07204643 0.1352689 0.1845052
-0.22650887 -0.13998705 -0.07024242 -0.14976454 -0.20972629 0.021861859 -0.13579907 0.13145405
0.10756762 -0.10127577 -0.104285285 0.18522069 0.2195967 -0.016605884 -0.23144303 0.08317485
0.13203605 -0.062470846 -0.12218596 0.04977813 -0.2227191 -0.1840679 0.085278854 0.295845
0.073025934 0.18899426 -0.11914515 -0.03289922 0.10502285 0.07450596 0.1251135 -0.07515037
-0.10099666 0.021708557 0.26744324 0.096336536 0.102864414 0.07717118 -0.041083295 0.024992933
-0.0056935507 0.044559367 0.07902631 -0.0020023305 -0.2147734 -0.028099803 -0.006266296 0.043302316
-0.008347234 0.12685648 -0.05695223 -0.034284703 -0.036366444 -0.01986764 -0.098218985 0.028319225
0.10266043 -0.062402364 -0.13490109 -0.08525167 -0.08137284 0.02919256 0.044072215 -0.02435873
0.13876544 0.084238335 -0.07471454 0.027246606 -0.00080404256 0.06829154 -0.061918892 0.06665987
0.022772498 -0.103419736 0.028677018 0.048287574 0.100900576 0.05618982 0.014982099 -0.039052125
0.11690773 0.049651086 0.07343317 -0.16968381 -0.023275722 0.01239451 -0.031918243 -0.013094516
3.655445 -3.2446706 -1.3157474 3.5200286 -3.42995 -2.128332 -3.9245439 0.4177388
-0.74637914 4.418692 1.4174787 4.109612 -2.6633482 -3.0843048 4.731757 4.079683
4.4615426 4.299687 -0.8758114 -4.0392137 3.2180226 4.2735505 -4.3678675 -3.6489828
-2.441294 -2.776785 3.999952 -4.266082 -0.6740336 -3.2519948 -1.1423284 4.6754627
-3.3944466 -3.4612963 -2.355219 -2.0716655 -2.0747974 -3.446741 -3.2792737 4.5145626
-2.5577087 -3.2317934 -3.1490514 -3.7376592 -4.281035 -3.3413663 -2.7848442 3.4803789
-3.1929762 -3.3631668 4.1226816 4.5024176 2.0532846 -1.8484008 -3.9863055 -0.73673654
0.5992467 -3.1750898 1.5331953 -3.4737072 -4.071458 -0.9403005 -3.211409 4.7519393
00000000: 4a4c 10be 77ae 3bbf 822d 95be 545a 943f
00000010: 3519 bbbe bccf 0d3f 0487 d2be b8a7 173e
00000020: dc43 23bf 526f 413e 51f3 16be 6355 ef3e
00000030: 12f3 2dbf c4c3 ecbe ca7f 94bb 1bc0 0f3f
00000040: 925a 8a3e 9b15 9fbd 3bb5 8cbe e95c 98bf
00000050: 8736 edbd 7058 323f e688 97bf 61aa 36bf
00000060: 4fdb 15bf 78ad babe f3b2 253f f8fa 6cbf
00000070: 9d0b 21be 71db 08bf 9678 53bf 0e36 553e
00000080: d98c 86bf b95b 1ebf 36fc 5cbe 80cf 96bf
00000090: 7f77 04bf 61af 203e bcef 8abf 6bf3 013f
000000a0: e965 30bf b53f 68bf e25a 92bf 5523 77bf
000000b0: fb65 68bf acbb 9dbd f7af 77bf 53c4 dd3e
000000c0: 8d6a afbf e34d 40bf 1ead b73e ff1a a63c
000000d0: 35a6 51bf fb3b 01bf 4f45 98bf 8dbf 5bbe
000000e0: 1c0c 863d de52 62bf e7d6 7d3d 18dd 97be
000000f0: b458 68bf 8fb2 12be 23b6 22be 18f4 e63d
00000100: a3c9 2d3e c05d b13d 6c00 5bbe bd56 d93b
00000110: 5cd1 44be 43ed d73d 0366 f3bd 2509 8b3c
00000120: 1d4e 333e a9a8 873d 0665 34be 5a42 353e
00000130: fe04 813d b9fe a7bc 3e00 0b3d 9d9d 4e3e
00000140: 5f7d 42bd ccb6 d43d c7b6 11be 1890 7dbe
00000150: d04e 8f3d d2df 413e a446 14be ac51 0fbe
00000160: eb4a 26be 3125 51be 79cb ed3c f752 c1bd
00000170: f110 1cbe 219a 133c 6f08 2cbd b467 143e
00000180: 55f3 a83c 7037 0fbe c618 a93d c4ad 52be
00000190: 7301 12be 148d 93bd ee83 0a3e eeee 3c3e
000001a0: f1f1 67be c458 0fbe 42db 8fbd e05b 19be
000001b0: 7dc2 56be a417 b33c e90e 0bbe e49b 063e
000001c0: 6a4c dc3d ac69 cfbd 8693 d5bd 7eaa 3d3e
000001d0: f5dd 603e 1009 88bc 67ff 6cbe 9357 aa3d
000001e0: 7534 073e 6ee1 7fbd a23c fabd 27e4 4b3d
000001f0: 7a10 64be 4c7c 3cbe aea6 ae3d ff78 973e
00000200: 9f8e 953d b687 413e 5f02 f4bd 55c1 06bd
00000210: 3816 d73d 9596 983d c11d 003e 70e8 99bd
00000220: 56d7 cebd 25d6 b13c 52ee 883e 174c c53d
00000230: 94aa d23d ec0b 9e3d f546 28bd fbbd cc3c
00000240: f790 babb e283 363d 8cd8 a13d 8839 03bb
00000250: 8fed 5bbe 8f31 e6bc 8055 cdbb c55d 313d
00000260: d6c2 08bc aae6 013e be46 69bd 1e6e 0cbd
00000270: fbf4 14bd 76c1 a2bc 0927 c9bd b8fd e73c
00000280: a23f d23d 9f99 7fbd 8323 0abe 6d98 aebd
00000290: cea6 a6bd 3c25 ef3c 1185 343d f68b c7bc
000002a0: 8718 0e3e 2685 ac3d f003 99bd 4634 df3c
000002b0: 62c6 52ba 6fdc 8b3d aa9e 7dbd f884 883d
000002c0: 648d ba3c bacd d3bd 11ec ea3c 31c9 453d
000002d0: f6a4 ce3d 4c27 663d 7a77 753c 1ff5 1fbd
000002e0: 526d ef3d f05e 4b3d 2164 963d 98c1 2dbe
000002f0: baac bebc 5812 4b3c b4bc 02bd 618a 56bc
00000300: d0f2 6940 afa8 4fc0 696a a8bf 2648 6140
00000310: 4d84 5bc0 9736 08c0 ba2b 7bc0 dce1 d53e
00000320: b412 3fbf ed65 8d40 f16f b53f f181 8340
00000330: 4c74 2ac0 4065 45c0 8e6a 9740 c38c 8240
00000340: f5c4 8e40 0997 8940 2d35 60bf 3d41 81c0
00000350: 15f4 4d40 edc0 8840 92c5 8bc0 ef88 69c0
00000360: 293e 1cc0 d8b6 31c0 37ff 7f40 be83 88c0
00000370: 778d 2cbf af20 50c0 d137 92bf 649d 9540
00000380: 9d3e 59c0 e185 5dc0 e8bb 16c0 2b96 04c0
00000390: 7bc9 04c0 6897 5cc0 9fdf 51c0 4c77 9040
000003a0: 80b1 23c0 b4d5 4ec0 0f8a 49c0 cf35 6fc0
000003b0: 3dfe 88c0 f2d8 55c0 e33a 32c0 87be 5e40
000003c0: b959 4cc0 203e 57c0 02ed 8340 ce13 9040
000003d0: 0469 0340 6698 ecbf a11f 7fc0 c49a 3cbf
000003e0: 3b68 193f ac34 4bc0 be3f c43f 3851 5ec0
000003f0: 6249 82c0 89b7 70bf ba87 4dc0 e30f 9840

StatefulPartitionedCall/sequential/dense/BiasAdd/ReadVariableOp:0 f4 [64]
0.019250168 0.0033760911 -0.012821326 -0.004539324 -0.0008692804 0.00021797475 0.0050342027 -0.008912719
0.020348812 0.045985907 0.030569952 -0.0015727015 -0.014823419 0.005373135 -0.04682836 -0.0067218705
-0.009796027 -0.030907465 -0.002134171 -0.007539523 0.0042886096 -0.0051210197 -0.021043595 0.02883085
-0.01654158 0.025208347 0.01732657 -0.008226128 0.033527106 0.017804136 0.01285505 -0.05465216
0.011699052 0.008295141 -0.0046351603 -0.005752564 0.004263852 -0.0114106815 -0.019352663 -0.0060421615
-0.008112976 -0.011409572 -0.039077118 -0.024772828 -0.010035907 0.021657929 -0.023477875 -0.008669341
-0.03460536 -0.013700614 0.023788968 -0.019936029 -0.014720298 -0.022118552 -0.043178774 -0.005188512
-0.0033948822 -0.033366892 -0.015294291 -0.017600914 0.009914163 -0.02809504 -0.019099304 -0.015882393
00000000: 87b2 9d3c 6941 5d3b 8a10 52bc 9cbe 94bb
00000010: 6ce0 63ba 2790 6439 f4f5 a43b a706 12bc
00000020: 8db2 a63c b85b 3c3d d66d fa3c 1b23 ceba
00000030: eddd 72bc 2011 b03b 18cf 3fbd 2343 dcbb
00000040: 847f 20bc a731 fdbc 73dd 0bbb 1a0e f7bb
00000050: 7787 8c3b 3ace a7bb 9e63 acbc ad2e ec3c
00000060: 3582 87bc bc81 ce3c 73f0 8d3c e2c6 06bc
00000070: b853 093d fbd9 913c fd9d 523c f1da 5fbd
00000080: 61ad 3f3c 58e8 073c 8be2 97bb 0180 bcbb
00000090: c8b7 8b3b def3 3abc 7a89 9ebc 53fd c5bb
000000a0: 4aec 04bc 37ef 3abc 540f 20bd 63f0 cabc
000000b0: a56d 24bc f86b b13c ac54 c0bc da09 0ebc
000000c0: 5abe 0dbd 8a78 60bc 15e1 c23c e250 a3bc
000000d0: 682d 71bc f731 b5bc 3adc 30bd 6504 aabb
000000e0: ac7c 5ebb b9ab 08bd e894 7abc cb2f 90bc
000000f0: 036f 223c 9227 e6bc 2576 9cbc cb1b 82bc
