kees_code/final_model/models/classifier_DF.onnx (onnx, 56970 bytes, 7 tensors)

StatefulPartitionedCall/sequential/dense_3/MatMul/ReadVariableOp:0 f4 [64, 1]
0.17407648 0.42492157 0.18976942 -0.36776075 -0.37703508 0.33336598 -0.14135428 0.25438914
-0.25352225 -0.4464342 0.1618894 -0.14148903 -0.23761065 -0.34766862 0.15920167 0.17647853
-0.3605036 0.19517307 -0.36824602 0.13307858 0.3345667 -0.3077952 0.09871531 -0.3062004
-0.3183501 -0.22460029 -0.20333599 -0.12167027 -0.2637201 0.2570708 0.35814264 0.35311404
0.3414383 -0.08341248 -0.39810097 0.3093988 0.18914196 0.25749102 0.19101898 -0.4095918
0.23861581 -0.44859713 -0.44686362 0.2313134 0.21213673 0.2319791 0.39198914 0.40414318
-0.12280516 -0.19566621 -0.44625285 0.31319553 0.13498856 -0.03911919 0.3039309 -0.25240603
-0.19937743 -0.3375039 -0.22413442 -0.3100032 0.15356003 0.22503515 -0.48848376 -0.4084469
00000000: 1b41 323e 528f d93e ea52 423e 234b bcbe
00000010: be0a c1be f2ae aa3e 2dbf 10be 4b3f 823e
00000020: abcd 81be 0693 e4be 56c6 253e 80e2 10be
00000030: 3550 73be 9f01 b2be c305 233e cab6 343e
00000040: ee93 b8be 73db 473e be8a bcbe c045 083e
00000050: 544c ab3e 5597 9dbe 412b ca3d 4dc6 9cbe
00000060: c9fe a2be 9efd 65be 4f37 50be 432e f9bd
00000070: 5206 87be c99e 833e 795e b73e 5dcb b43e
00000080: 00d1 ae3e 2ad4 aabd e4d3 cbbe 8569 9e3e
00000090: 6eae 413e ddd5 833e 7b9a 433e 04b6 d1be
000000a0: b457 743e 86ae e5be 4fcb e4be 6cdd 6c3e
000000b0: 5f3a 593e ee8b 6d3e cdb2 c83e dbeb ce3e
000000c0: 4681 fbbd b95c 48be 417b e4be 2a5b a03e
000000d0: 713a 0a3e 723b 20bd d59c 9b3e 5d3b 81be
000000e0: 9929 4cbe 50cd acbe 7e83 65be bdb8 9ebe
000000f0: d73e 1d3e 9d6f 663e 8b1a fabe f41f d1be

StatefulPartitionedCall/sequential/dense_2/MatMul/ReadVariableOp:0 f4 [64, 64]
-0.077313356 -0.24449205 -0.24284704 0.28541908 0.18904474 -0.28220412 -0.08436018 0.022977464
0.13711776 0.27037337 -0.18000023 0.28085682 0.10541935 0.052006006 -0.14526558 0.024471592
0.23676634 -0.21796219 0.3215265 -0.25249144 0.13852446 0.2832178 0.020220008 0.37957987
0.08064707 0.028837942 0.24371247 0.32757854 0.13892733 0.04633964 -0.15266578 -0.09936597
-0.22803345 0.2332005 -0.074572325 -0.1050631 -0.029732939 0.03249974 -0.17162971 0.11347622
-0.006049596 0.061504964 0.24652009 -0.19056673 0.121457055 -0.13372907 -0.13244942 0.0676462
0.0421356 0.25823978 0.03474338 -0.22317424 0.030085973 0.23636402 -0.17474657 0.017066061
0.23525503 0.02446542 -0.15635683 0.3187477 -0.14047386 -0.11740703 0.008399963 0.1002249
-0.04367135 0.00073747634 0.0634343 -0.11867318 -0.14139636 -0.09840347 0.26173282 -0.14165705
0.12700953 0.13814628 -0.07903589 -0.047408752 0.057576157 0.0033392382 0.18870185 -0.09759886
0.17892393 -0.21895272 0.0036157658 -0.0034709205 0.05397643 0.20885812 -0.1642843 0.04918733
0.056576785 -0.0025701532 0.10054962 -0.06928064 -0.13785371 0.084554486 0.09484392 -0.0050770766
-0.029850371 0.16957408 0.22990273 0.037083182 -0.056332476 -0.08125407 0.07162307 0.049939834
-0.157099 -0.05579531 0.1407553 -0.056247313 0.015310476 -0.17741388 -0.17761989 -0.19879013
-0.13461758 -0.022624385 0.06825183 0.20739278 -0.032926936 0.20288055 -0.14646024 0.26733315
0.17021728 0.12578899 -0.2414311 -0.16306566 -0.051372536 0.038476873 0.23216866 -0.05765187
0.1872546 0.04667152 0.2663612 -0.2512015 -0.2521986 0.15135364 -0.05857652 -0.02427657
-0.16895393 -0.18284862 0.13820769 -0.07187274 0.015359598 -0.3067304 0.07281061 -0.041363914
-0.29866827 0.17879696 -0.08032227 0.19531517 0.117970064 -0.19466998 0.1550816 -0.1964257
0.16431303 -0.20217663 0.124113806 -0.15346996 0.0046945577 0.041245583 0.22234415 0.101393245
-0.06273144 -0.02646737 0.050006483 -0.011437971 0.23033728 -0.09893063 0.0415362 -0.1991645
0.18268743 0.0037847531 -0.107865974 -0.038379956 -0.17576125 0.18857816 0.040674165 0.13351212
-0.05280527 0.047916047 -0.09745564 -0.02409344 -0.21636017 -0.17456384 0.030600596 -0.20252717
0.078446716 -0.29658568 -0.16916661 -0.18988864 0.26431942 0.03049925 -0.30323747 -0.05439222
0.033133633 -0.16213556 -0.013755456 -0.14405628 -0.061495826 -0.1667264 -0.08908796 0.24288356
-0.14028075 -0.15230322 -0.12991326 -0.0568023 -0.19475706 -0.20914438 -0.14691134 -0.030473761
0.025948334 0.056188166 0.001959586 -0.18135646 -0.053010065 0.07367364 -0.11185752 -0.25196302
-0.03673858 0.04428298 0.19609432 0.06752296 0.0011180063 -0.24137221 0.13633099 0.1532809
0.02463939 0.1524141 -0.22527577 -0.16791826 -0.1333504 0.1007413 0.15823966 -0.14961883
-0.22723934 -0.2587954 -0.2882257 -0.20306979 -0.15964977 0.058123488 0.06323364 -0.18642981
-0.017066069 0.09631992 -0.023588952 -0.114665754 0.041685183 0.1244157 0.0122408485 0.18313785
0.06272882 0.05164256 0.06446538 0.026861576 -0.03237544 -0.0137582 -0.31194448 -0.020814909
00000000: 7756 9ebd 205c 7abe e5ac 78be 7322 923e
00000010: f294 413e 0f7d 90be 08c5 acbd 3c3b bc3c
00000020: 9968 0c3e 616e 8a3e fb51 38be 77cc 8f3e
00000030: 1ae6 d73d 4004 553d 80c0 14be a678 c83c
00000040: e072 723e 7b31 5fbe 1f9f a43e 8f46 81be
00000050: 5bd9 0d3e ec01 913e 6ea4 a53c 4b58 c23e
00000060: 4b2a a53d 8c3d ec3c c38f 793e 60b8 a73e
00000070: f742 0e3e a2ce 3d3d 6b54 1cbe 6380 cbbd
00000080: 9a81 69be 1dcc 6e3e 60b9 98bd 532b d7bd
00000090: 7e92 f3bc 731e 053d b3bf 2fbe 3866 e83d
000000a0: b03b c6bb a1ec 7b3d c36f 7c3e ed23 43be
000000b0: 7abe f83d 46f0 08be d2a0 07be 178a 8a3d
000000c0: 6196 2c3d 0138 843e 134f 0e3d ca87 64be
000000d0: dc76 f63c 6909 723e c4f0 32be 20ce 8b3c
000000e0: b2e6 703e b46b c83c 011c 20be e632 a33e
000000f0: 61d8 0fbe 1973 f0bd 00a0 093c b642 cd3d
00000100: bbe0 32bd 3353 413a d8e9 813d ed0a f3bd
00000110: 35ca 10be c287 c9bd d801 863e 8c0e 11be
00000120: c90e 023e 3876 0d3e 92dd a1bd ae2f 42bd
00000130: fad4 6b3d 1fd7 5a3b 0f3b 413e e9e1 c7bd
00000140: d637 373e 2435 60be 7cf6 6c3b 6278 63bb
00000150: 6416 5d3d e7de 553e 253a 28be a778 493d
00000160: 0fbd 673d 0470 28bb f6ec cd3d 02e3 8dbd
00000170: 8629 0dbe e72a ad3d 873d c23d 9b5d a6bb
00000180: c488 f4bc d4a4 2d3e 9f6b 6b3e 89e4 173d
00000190: e2bc 66bd 8968 a6bd 1eaf 923d b68d 4c3d
000001a0: 8fde 20be 9f89 64bd 2822 103e 9563 66bd
000001b0: cad8 7a3c fcab 35be fde1 35be a48f 4bbe
000001c0: 31d9 09be c656 b9bc 9ec7 8b3d c65e 543e
000001d0: 65de 06bd ebbf 4f3e acf9 15be e4df 883e
000001e0: 704d 2e3e d4ce 003e b739 77be affa 26be
000001f0: 026c 52bd ed99 1d3d 9fbd 6d3e 5e24 6cbd
00000200: abbf 3f3e a32a 3f3d 7f60 883e 7c9d 80be
00000210: 2d20 81be 73fc 1a3e efed 6fbd a8df c6bc
00000220: 4202 2dbe ab3c 3bbe 5186 0d3e 0432 93bd
00000230: d3a6 7b3c c40b 9dbe bb1d 953d 356d 29bd
00000240: 0ceb 98be 8d16 373e 0180 a4bd b300 483e
00000250: 4a9a f13d 9157 47be b6cd 1e3e d223 49be
00000260: ad41 283e 6407 4fbe 612f fe3d 3b27 1dbe
00000270: ced4 993b 21f1 283d 2fae 633e 43a7 cf3d
00000280: 5779 80bd 19d2 d8bc 99d3 4c3d 5466 3bbc
00000290: 89dd 6b3e 249c cabd dd21 2a3d c7f1 4bbe
000002a0: 6a12 3b3e 9f09 783b d6e8 dcbd 4d34 1dbd
000002b0: c2fa 33be a21a 413e f499 263d 67b7 083e
000002c0: 574a 58bd 9e43 443d d396 c7bd 9b5f c5bc
000002d0: 858d 5dbe ddc0 32be 1aae fa3c 4863 4fbe
000002e0: aca8 a03d 14da 97be 033a 2dbe 2b72 42be
000002f0: e054 873e 90d9 f93c f141 9bbe 60ca 5ebd
00000300: 22b7 073d dd06 26be 905e 61bc 7d83 13be
00000310: 0ce3 7bbd 53ba 2abe c073 b6bd 78b6 783e
00000320: c2a5 0fbe 60f5 1bbe fb07 05be 87a9 68bd
00000330: 656e 47be f229 56be ed6f 16be 1ca4 f9bc
00000340: 9a91 d43c 9025 663d 666c 003b 82b5 39be
00000350: 1521 59bd 35e2 963d 8e15 e5bd 4c01 81be
00000360: 317b 16bd 1262 353d f3cc 483e 7a49 8a3d
00000370: 118a 923a 472a 77be 5a9a 0b3e abf5 1c3e
00000380: 8cd8 c93c 7112 1c3e b1ae 66be c4f2 2bbe
00000390: 028d 08be 7451 ce3d 9409 223e ae35 19be
000003a0: 6eb1 68be d580 84be 5292 93be 87f1 4fbe
000003b0: 3b7b 23be e512 6e3d a380 813d 75e7 3ebe
000003c0: 24ce 8bbc 6143 c53d 9e3d c1bc e1d5 eabd
000003d0: 15be 2a3d a9cd fe3d d78d 483c 7d88 3b3e
000003e0: f877 803d 2687 533d 6d06 843d cf0c dc3c
000003f0: 1c9c 04bd 136a 61bc 30b7 9fbe 0784 aabc

StatefulPartitionedCall/sequential/dense_2/BiasAdd/ReadVariableOp:0 f4 [64]
0.04061588 0.03290379 0.07510157 0.012954342 -0.028356543 0.05331958 0.025431516 0.05811999
-0.018585984 -0.014210345 0.029226717 -0.0005884058 0.016625375 0.017451463 0.025339976 0.036467195
-0.007682762 -0.00014007116 0.0110974545 0.037679173 0.03182029 -0.022050455 0.06477034 -0.043854587
0.019547492 0.011675445 -0.011808462 -0.0040062475 0.011652776 -0.00175477 0.029401733 0.02548456
0.049661856 -3.5668745e-05 0.005990246 0.029033111 0.046517525 0.044691283 0.06677627 0.024048105
0.055391923 0.0055178376 0.018752689 0.02875762 0.030842379 0.05581275 0.027411751 0.035782337
0.0058027986 -0.022906868 0.016405629 0.059063014 -0.032151517 -0.02105692 0.045472723 0.051727988
-0.015236211 0.011814374 -0.008369215 -0.02421295 0.07686108 0.0339323 -0.005747781 0.011204406
00000000: d65c 263d 20c6 063d dace 993d 733e 543c
00000010: fb4b e8bc a265 5a3d c155 d03c 3a0f 6e3d
00000020: a241 98bc 82d2 68bc de6c ef3c 3f3f 1aba
00000030: f031 883c 5ff6 8e3c c895 cf3c a05e 153d
00000040: aebf fbbb 11e0 12b9 19d2 353c 7a55 1a3d
00000050: fe55 023d 28a3 b4bc 50a6 843d dea0 33bd
00000060: 1022 a03c 5e4a 3f3c 4878 41bc d746 83bb
00000070: 49eb 3e3c 5000 e6ba e7db f03c ffc4 d03c
00000080: 3b6a 4b3d 069b 15b8 d349 c43b d9d6 ed3c
00000090: 2989 3e3d 350e 373d ffc1 883d 8800 c53c
000000a0: a4e2 623d face b43b 3d9f 993c 1a95 eb3c
000000b0: 28a9 fc3c e99b 643d 9c8e e03c 8090 123d
000000c0: 6725 be3b 2fa7 bbbc 1965 863c 0fec 713d
000000d0: 4fb1 03bd 907f acbc 9b41 3a3d bae0 533d
000000e0: 4da1 79bc 1391 413c 081f 09bc 3d5a c6bc
000000f0: 5869 9d3d 98fc 0a3d e257 bcbb af92 373c

StatefulPartitionedCall/sequential/dense_1/MatMul/ReadVariableOp:0 f4 [64, 64]
0.000432912 -0.018911099 -0.111379825 0.13196872 0.10135889 0.17408468 -0.13983078 -0.058006838
-0.12900424 0.06219899 -0.118739255 0.11627982 0.011267214 0.17278714 0.25885987 0.027400494
-0.03902708 -0.124728926 0.20203458 0.11227711 -0.15010014 0.13551301 0.024712445 -0.008011914
-0.0056095817 0.00793109 -0.09900975 -0.055377495 -0.14430897 0.102433786 0.18363696 0.1730183
-0.013908889 0.12496367 -0.1759473 0.22730537 -0.11967011 0.031371295 0.018390372 -0.030999541
0.22882625 -0.020072486 -0.184746 0.15703745 0.092396356 -0.008891673 -0.056666397 -0.09128176
-0.22977135 -0.1124936 -0.18596347 0.06693705 -0.0713882 0.1327526 0.2288705 0.013519459
-0.061657805 -0.065515995 0.26395673 -0.009346193 -0.09014254 0.26211017 0.053308807 -0.13411105
-0.011988656 0.090186626 -0.04823859 -0.018432297 0.17532226 -0.1306131 0.011697617 0.28170162
-0.14507961 -0.037994247 -0.11270581 -0.123643905 0.13175365 0.24649923 -0.12194141 0.066033274
0.05317349 -0.020134078 0.08156139 0.06566742 0.12425329 -0.15073289 0.022240788 -0.036172494
0.25228637 0.060512193 0.079952 -0.07810147 0.17252119 0.071168736 0.18866444 0.26099667
0.2275601 0.09831092 0.09925727 0.20201227 0.23414166 -0.06434417 -0.026345547 -0.06907882
0.03866256 0.06034438 -0.11653277 0.1613081 -0.08402735 -0.20059675 0.29229853 -0.15871257
-0.10696647 -0.14831395 0.049402766 0.28294364 0.018750815 -0.048837338 0.25659043 0.16991211
0.058977734 0.11661238 -0.0012809263 0.011396413 -0.23331529 -0.07249799 0.0130897155 -0.0071172384
0.015441183 0.20752925 0.025097575 0.032208405 0.24641809 0.082186185 0.16365246 -0.16978252
0.1858978 0.08371225 0.055111017 -0.18467578 0.12018106 -0.044317406 -0.07875335 0.102775894
-0.2625754 -0.0037320699 0.046546713 0.24862929 0.07732481 -0.14861864 -0.123655975 0.10796206
0.054252878 0.061640047 -0.079764806 0.06946172 0.16149382 -0.015462012 0.18154961 0.0436636
-0.07657607 0.0874093 0.21397643 0.23265235 -0.10600813 0.1403361 0.1545733 -0.121267624
-0.043895364 0.0925827 -0.053015504 0.03763049 0.09393315 0.010867387 0.055326108 -0.14824939
0.07326609 0.09816143 -0.12227335 0.055462126 0.19270612 0.1303177 0.22404072 -0.15044953
-0.046355654 0.04118528 0.07477928 0.20335333 0.06371128 0.07258724 0.07258025 -0.012656026
0.09704774 -0.20754535 0.01656554 -0.2324082 -0.031073885 -0.091899484 -0.116746224 0.20482893
0.12575057 -0.020440105 -0.2159562 0.10063007 -0.064735144 -0.20036772 -0.27667361 0.35112053
0.2556298 0.09978012 0.065723404 0.07863639 -0.17139482 0.29705408 0.05947868 -0.09316237
-0.17953183 0.070204966 0.028332604 0.34291238 0.16540585 0.12991977 0.18901436 0.18867601
-0.07752104 0.2590337 0.061660573 0.18224262 0.08194684 0.034690514 0.1800471 0.28502116
-0.017949684 0.35808745 0.048713386 0.22744186 -0.08583355 -0.16422877 -0.17840216 0.2055628
0.04774412 0.12733325 0.007365397 0.14735563 -0.2731159 -0.20890553 -0.104961626 -0.09865482
0.11065872 -0.04419897 -0.21807925 -0.022192731 0.1527609 -0.06765118 0.16524482 0.24758515
00000000: 77f8 e239 73eb 9abc 1b1b e4bd cf22 073e
00000010: 4095 cf3d 4143 323e cd2f 0fbe 9498 6dbd
00000020: b019 04be 5ec4 7e3d 912d f3bd 1d24 ee3d
00000030: 1f9a 383c 1def 303e 4889 843e 0077 e03c
00000040: dcda 1fbd e171 ffbd 27e2 4e3e 8bf1 e53d
00000050: dab3 19be ecc3 0a3e c171 ca3c 6744 03bc
00000060: 95d0 b7bb 67f1 013c a0c5 cabd 83d3 62bd
00000070: bbc5 13be cec8 d13d 540b 3c3e b62b 313e
00000080: 1ce2 63bc f4ec ff3d 872b 34be bdc2 683e
00000090: 9a15 f5bd 307f 003d 68a7 963c c0f2 fdbc
000000a0: 6e51 6a3e 0e6f a4bc 0e2e 3dbe 6dce 203e
000000b0: 4d3a bd3d 61ae 11bc 061b 68bd eef1 babd
000000c0: 2e49 6bbe 0b63 e6bd 356d 3ebe 4b16 893d
000000d0: fa33 92bd 4cf0 073e 075d 6a3e b980 5d3c
000000e0: e58c 7cbd 402d 86bd 5625 873e c620 19bc
000000f0: a79c b8bd 4e33 863e 565a 5a3d 6854 09be
00000100: 116c 44bc c4b3 b83d d495 45bd 54ff 96bc
00000110: ae87 333e 71bf 05be 5da7 3f3c 323b 903e
00000120: c08f 14be db9f 1bbd 4ed2 e6bd 0439 fdbd
00000130: 6eea 063e 4b6a 7c3e 6bbc f9bd 743c 873d
00000140: 72cc 593d 39f0 a4bc a809 a73d a47c 863d
00000150: 8278 fe3d b959 1abe 5032 b63c 9c29 14bd
00000160: ae2b 813e a2db 773d e0bd a33d aaf3 9fbd
00000170: 65a9 303e eac0 913d 4031 413e 5ba1 853e
00000180: 8405 693e 3c57 c93d 6547 cb3d 4edc 4e3e
00000190: d5c2 6f3e e0c6 83bd 9ed2 d7bc 3279 8dbd
000001a0: a25c 1e3d ab2b 773d bca8 eebd f32d 253e
000001b0: 8816 acbd 3c69 4dbe 27a8 953e 8c85 22be
000001c0: 3d11 dbbd 9ddf 17be 8e5a 4a3d fddd 903e
000001d0: 4f9b 993c a909 48bd d25f 833e 71fd 2d3e
000001e0: a392 713d 79d2 ee3d c1e4 a7ba 05b8 3a3c
000001f0: 34ea 6ebe d479 94bd 3f76 563c b937 e9bb
00000200: 04fd 7c3c 8c82 543e 6e99 cd3c f6ec 033d
00000210: 0655 7c3e 3b51 a83d 8394 273e 78db 2dbe
00000220: fe5b 3e3e 5471 ab3d 17bc 613d a61b 3dbe
00000230: 7d21 f63d 2b86 35bd 7049 a1bd 2b7c d23d
00000240: 4870 86be be95 74bb c4a7 3e3d ad98 7e3e
00000250: 785c 9e3d 7c2f 18be 583f fdbd 361b dd3d
00000260: 4438 5e3d 467a 7c3d bb5b a3bd f241 8e3d
00000270: a35e 253e 6154 7dbc 24e8 393e 9ad8 323d
00000280: ead3 9cbd a603 b33d a31c 5b3e 6b3c 6e3e
00000290: ca1a d9bd 44b4 0f3e 7748 1e3e 295b f8bd
000002a0: a0cb 33bd 009c bd3d c926 59bd 6e22 1a3d
000002b0: 0660 c03d 200d 323c a19d 623d b0ce 17be
000002c0: 880c 963d dc08 c93d 736a fabd 412c 633d
000002d0: c154 453e 0172 053e ee6a 653e 710f 1abe
000002e0: 6ddf 3dbd e5b1 283d e125 993d db3b 503e
000002f0: 0f7b 823d 9ea8 943d f4a4 943d 385b 4fbc
00000300: f7c0 c63d c586 54be 75b4 873c 6afc 6dbe
00000310: a98e febc cc35 bcbd a518 efbd adbe 513e
00000320: c2c4 003e 0272 a7bc 9f23 5dbe 2317 ce3d
00000330: dc93 84bd 322d 4dbe 2aa8 8dbe 12c6 b33e
00000340: e9e1 823e 8559 cc3d fe99 863d 1e0c a13d
00000350: 2082 2fbe 7917 983e eb9f 733d eacb bebd
00000360: 31d7 37be 9fc7 8f3d c719 e83c 3692 af3e
00000370: 2760 293e b009 053e fb8c 413e 4934 413e
00000380: 5ac3 9ebd 11a0 843e cc8f 7c3d cf9d 3a3e
00000390: bfd3 a73d a417 0e3d 445e 383e 4bee 913e
000003a0: 370b 93bc 3d57 b73e b087 473d 85e6 683e
000003b0: 80c9 afbd 962b 28be 0eaf 36be 0e7f 523e
000003c0: 578f 433d a663 023e 6e59 f13b 65e4 163e
000003d0: d9d5 8bbe 55eb 55be 1ff6 d6bd 8a0b cabd
000003e0: 0aa1 e23d fb09 35bd 2b50 5fbe 88cd b5bc
000003f0: 5a6d 1c3e b48c 8abd f035 293e f686 7d3e

StatefulPartitionedCall/sequential/dense_1/BiasAdd/ReadVariableOp:0 f4 [64]
-0.016867042 0.0029762883 -0.0077632773 -0.034722485 -0.0010993376 0.02063794 -0.006620773 0.012040478
0.018385118 0.016487198 -0.014200685 0.022261022 -0.033350255 0.018032013 -0.050630838 0.013622629
0.027937494 0.011977259 0.012298936 0.0006799791 0.0147102745 0.045864437 0.0049829925 0.041218333
-0.028677262 -0.0035253547 -0.00330441 0.03591143 0.022965575 0.017658522 -0.02152889 0.005282656
-0.04260565 0.02303263 0.032472614 0.016525844 -0.026172588 -0.019390346 0.0068867896 0.012920526
-0.019946996 0.019025244 0.015085104 -0.0014969832 0.022588909 -0.042385656 -0.012709197 0.01620882
-0.031220535 0.037584037 -0.06667992 0.013121621 0.035312034 -0.008656049 0.00280327 0.030775126
-0.022642516 -0.0203596 -2.345534e-05 0.00805337 0.009314094 -0.01914555 0.035838313 0.009374025
00000000: c02c 8abc d50d 433b 1763 febb 2a39 0ebd
00000010: a617 90ba e610 a93c 12f3 d8bb 6d45 453c
00000020: 639c 963c 2910 873c fda9 68bc bf5c b63c
00000030: 479a 08bd dfb7 933c 4862 4fbd 7331 5f3c
00000040: 2cdd e43c 443c 443c 7a81 493c a040 323a
00000050: 5d03 713c 59dc 3b3d 5f48 a33b 8ed4 283d
00000060: 94ec eabc a309 67bb cd8e 58bb dd17 133d
00000070: 4d22 bc3c 9ba8 903c 5b5d b0bc 211a ad3b
00000080: 4383 2ebd edae bc3c 0102 053d 3561 873c
00000090: e567 d6bc 81d8 9ebc 94aa e13b 9db0 533c
000000a0: e267 a3bc d4da 9b3c 8327 773c 6c36 c4ba
000000b0: 600c b93c 959c 2dbd 3c3a 50bc 5cc8 843c
000000c0: 35c2 ffbc b8f1 193d 7b8f 88bd 11fc 563c
000000d0: 5aa3 103d 1ad2 0dbc 11b7 373b 1e1c fc3c
000000e0: cc7c b9bc 2dc9 a6bc f6c1 c4b7 48f2 033c
000000f0: 249a 183c 21d7 9cbc 32cb 123d 8395 193c

StatefulPartitionedCall/sequential/dense/MatMul/ReadVariableOp:0 f4 [78, 64]
0.018305274 -0.2382645 -0.2244221 -0.1770692 -0.21006176 0.14237496 0.054187033 -0.04314708
-0.07196579 -0.009360029 0.22742234 -0.2625289 -0.10441216 -0.21241598 -0.16566502 -0.16368411
0.09737463 -0.23003736 -0.22425109 -0.015011754 0.28700057 -0.306931 -0.16948563 0.0037065276
-0.12256878 -0.109330244 -0.0725879 -0.15594026 -0.28089258 0.26103136 0.016455775 0.092118435
-0.1307241 0.30652747 0.09947191 -0.113881566 -0.37773314 -0.04915467 0.3212623 0.14807495
-0.025744297 0.02795116 0.27434582 0.13692768 -0.18037713 -0.13204704 -0.15661071 -0.060179118
-0.3593868 -0.3710941 0.25422353 0.23344308 0.3100054 0.12970887 -0.11726067 0.0006776688
-0.15726961 -0.36555788 -0.094588265 -0.24756452 -0.24599509 -0.10420015 -0.003013831 -0.02626831
0.16937017 0.1435597 0.09106985 0.102287315 0.15541814 0.20706001 0.027673643 0.06276791
0.0272782 0.14670292 -0.06028399 0.11677905 -0.12199871 -0.15615746 0.022617709 -0.045141645
0.118468486 0.001514002 0.0958748 -0.12818876 0.115365215 0.10349496 -0.021551704 -0.16864558
-0.027700657 0.18870175 0.1466623 0.12486015 0.08451553 -0.003969934 0.1762217 -0.06083409
0.057000775 -0.07566192 -0.131438 0.14034028 -0.11301261 0.14757314 0.0058498927 0.1977993
0.045460317 -0.055125155 0.11771809 -0.20196347 -0.06377997 -0.025965529 -0.21675327 -0.024945024
-0.20694758 0.005717623 -0.14146115 0.120655306 0.014545269 0.020530047 -0.23854536 -0.14240697
-0.019546892 -0.1244399 0.1397564 -0.1633967 -0.040000774 0.20860614 0.05965464 0.014810133
0.029805822 0.050806925 0.0883573 0.05861322 -0.2394509 0.058766916 0.21816698 -0.049069136
-0.05579511 -0.041433048 -0.041749217 0.08677062 0.08014266 -0.23624188 -0.08257765 0.10587724
0.27865928 -0.12681173 -0.1426557 -0.049293924 0.09834749 0.19448154 -0.112925366 0.14730206
-0.03312661 -0.10760961 0.1912083 0.17168114 -0.07936172 -0.01892176 0.0038062942 -0.047445204
-0.08438415 0.20440204 0.05999967 0.006010022 0.06523484 -0.0018113158 -0.02460953 -0.33470863
-0.057228692 -0.23816207 0.1271631 -0.098585814 0.09160253 -0.06366496 -0.012827388 0.0014939345
-0.16105804 0.11366148 0.08401027 0.15728688 -0.084568724 -0.115137756 0.073776685 -0.2844848
-0.035994735 0.025428463 -0.03396816 0.0077188686 0.035026263 0.014866586 -0.17254712 -0.12604761
-0.6808315 -1.3124437 -0.92089176 -0.07531858 -1.0069698 1.2681957 1.194202 -1.0822023
-1.1066953 -0.9831128 1.1855086 -0.43612388 -1.5142578 -1.3698212 -0.2354324 -1.7294806
0.67352825 -1.1289399 -1.3271192 -0.64958143 1.3106105 -1.4244415 1.2946967 0.46602982
-0.6132113 -0.35823926 -0.9812027 -1.1157451 -1.0852464 1.4264287 1.0808582 -0.9332373
-1.0393115 1.1319972 -0.89974207 -1.0004632 -1.3284982 0.98398864 1.2832764 1.0035663
-1.2723025 1.1696552 1.5163927 0.21391986 -1.6108296 -1.3605393 -0.8873938 -0.69907224
-0.787197 -0.5898489 1.6169525 0.96583104 1.0893309 0.3979635 -1.7271581 1.3907895
-1.0341468 -1.4091685 0.8963376 -0.69692373 -0.73866606 0.77774405 0.6801983 0.32593176
00000000: f1f4 953c 9cfb 73be e8ce 65be a151 35be
00000010: 6e1a 57be beca 113e 39f3 5d3d feba 30bd
00000020: cd62 93bd cf5a 19bc 67e1 683e 306a 86be
00000030: 0bd6 d5bd 9383 59be 17a4 29be cf9c 27be
00000040: 5a6c c73d ea8e 6bbe 14a2 65be dcf3 75bc
00000050: bdf1 923e 0f26 9dbe a48d 2dbe 37e9 723b
00000060: 5705 fbbd 89e8 dfbd f7a8 94bd ceae 1fbe
00000070: 27d1 8fbe e7a5 853e 43ce 863c 97a8 bc3d
00000080: 8adc 05be 2bf1 9c3e eeb7 cb3d bd3a e9bd
00000090: 3d66 c1be 6856 49bd 7e7c a43e f6a0 173e
000000a0: b4e5 d2bc d5f9 e43c 0e77 8c3e c536 0c3e
000000b0: c8b4 38be 5737 07be 8f5e 20be 617e 76bd
000000c0: 8c01 b8be 0c00 bebe 9629 823e b40b 6f3e
000000d0: 07b9 9e3e 67d2 043e 5d26 f0bd 95a5 313a
000000e0: 490b 21be 672a bbbe 7eb7 c1bd 8e81 7dbe
000000f0: 23e6 7bbe e366 d5bd b283 45bb a430 d7bc
00000100: 606f 2d3e 5001 133e d482 ba3d 037c d13d
00000110: ef25 1f3e 8a07 543e d6b3 e23c 768c 803d
00000120: 8876 df3c 4a39 163e 58ec 76bd db29 ef3d
00000130: 76da f9bd bee7 1fbe c648 b93c 72e6 38bd
00000140: 9b9f f23d 7a71 c63a 025a c43d ea43 03be
00000150: 9944 ec3d 2af5 d33d 338d b0bc 6db1 2cbe
00000160: 7dec e2bc 083b 413e a42e 163e aeb6 ff3d
00000170: 7a16 ad3d 3816 82bb 7673 343e 2b2d 79bd
00000180: a579 693d a3f4 9abd af97 06be 5db5 0f3e
00000190: 2873 e7bd 6a1d 173e 75b0 bf3b e68b 4a3e
000001a0: 9934 3a3d eaca 61bd 2f16 f13d 83cf 4ebe
000001b0: 139f 82bd a9b5 d4bc 92f4 5dbe 8259 ccbc
000001c0: 11ea 53be e65a bb3b 31db 10be 211a f73d
000001d0: 484f 6e3c a12e a83c 3c45 74be 22d3 11be
000001e0: ce20 a0bc 59da febd 4d1c 0f3e 7751 27be
000001f0: dad7 23bd d99c 553e 6c58 743d 33a6 723c
00000200: 572b f43c ec1a 503d acf4 b43d 6a14 703d
00000210: 9e32 75be 94b5 703d 2a67 5f3e b8fc 48bd
00000220: 6a89 64bd b3b5 29bd 3a01 2bbd cbb4 b13d
00000230: d621 a43d 64e9 71be 791e a9bd 2bd6 d83d
00000240: 6eac 8e3e efda 01be 5614 12be 6de8 49bd
00000250: 696a c93d 2b26 473e 6a45 e7bd 5ad6 163e
00000260: c5af 07bd 6d62 dcbd 1ccc 433e 2ecd 2f3e
00000270: 6688 a2bd cf01 9bbc 0573 793b e755 42bd
00000280: 99d1 acbd c54e 513e 37c2 753d b8ef c43b
00000290: d899 853d ac69 edba ed99 c9bc ee5e abbe
000002a0: a268 6abd c2e0 73be 0b37 023e 5ce7 c9bd
000002b0: 1b9a bb3d c662 82bd f729 52bc 20d0 c33a
000002c0: 66ec 24be 5ac7 e83d 940d ac3d d00f 213e
000002d0: 5e32 adbd 58cd ebbd 3b18 973d fea7 91be
000002e0: 376f 13bd 5a4f d03c 3322 0bbd 90ee fc3b
000002f0: b377 0f3d fb92 733c 31b0 30be a012 01be
00000300: f94a 2ebf 28fe a7bf 90bf 6bbf a140 9abd
00000310: 63e4 80bf 3d54 a23f 9cdb 983f 9b85 8abf
00000320: 31a8 8dbf 48ad 7bbf bfbe 973f a14b dfbe
00000330: 33d3 c1bf 4d56 afbf 3115 71be 9f5f ddbf
00000340: 596c 2c3f 1a81 90bf 0bdf a9bf f84a 26bf
00000350: 16c2 a73f 1954 b6bf 9fb8 a53f 769b ee3e
00000360: 6afb 1cbf 236b b7be 1a30 7bbf bcd0 8ebf
00000370: 5be9 8abf 3795 b63f 9059 8a3f a4e8 6ebf
00000380: 2908 85bf 49e5 903f 7f55 66bf 2e0f 80bf
00000390: 3b0c aabf aee6 7b3f 6742 a43f dc74 803f
000003a0: cfda a2bf 43b7 953f 2819 c23f cf0d 5b3e
000003b0: aa2f cebf 2726 aebf 3d2c 63bf 66f6 32bf
000003c0: be85 49bf 5600 17bf 4df8 ce3f b440 773f
000003d0: 326f 8b3f dfc1 cb3e 8413 ddbf 6405 b23f
000003e0: ec5e 84bf a25f b4bf 6276 653f 9869 32bf
000003f0: 3819 3dbf 3c1a 473f 7a21 2e3f 87e0 a63e

StatefulPartitionedCall/sequential/dense/BiasAdd/ReadVariableOp:0 f4 [64]
-0.004305332 -0.0022421656 0.0056686397 0.008307192 0.0068054986 -0.026082473 0.005812849 0.02635865
0.012148996 0.017585147 0.0016357389 -0.015720196 0.011604068 0.019975426 -0.014232749 -0.03003094
0.0042770314 0.0028801318 -0.011673972 -0.0115579 -0.0010563025 0.015332162 -0.018599115 0.014917209
0.0074386057 0.016977474 0.019079506 0.021743637 0.007912992 -0.04308161 -0.055481274 0.018375175
0.007744642 -0.0043586516 0.03399362 0.012537509 0.0033423533 -0.0077211442 -0.021971412 -0.03126126
-0.026234591 -0.023783782 -0.01163305 0.002730183 -0.011105762 -0.022040632 0.010318137 -0.0057392437
0.02257126 0.034185868 -0.029185584 -0.0032751637 -0.037236746 0.018069567 0.0130808 -0.05090863
0.009209387 -0.0022631572 -0.026989987 0.01171923 -0.002393339 -0.015605458 -0.026216881 0.006930067
00000000: be13 8dbb 4cf1 12bb ffbf b93b e31a 083c
00000010: a900 df3b e9aa d5bc b679 be3b 18ee d73c
00000020: 950c 473c ba0e 903c 4a66 d63a a4c7 80bc
00000030: fd1e 3e3c 81a3 a33c 7a30 69bc 7203 f6bc
00000040: 5726 8c3b 98c0 3c3b 3044 3fbc 595d 3dbc
00000050: a173 8aba c033 7b3c 2c5d 98bc 4f67 743c
00000060: 8cbf f33b 5814 8b3c a04c 9c3c b61f b23c
00000070: 7ea5 013c 5876 30bd 5540 63bd 8987 963c
00000080: c4c6 fd3b 05d3 8ebb e53c 0b3d 206a 4d3c
00000090: 620b 5b3b a701 fdbb 64fd b3bc cf0b 00bd
000000a0: ede9 d6bc 35d6 c2bc 8c98 3ebc dfec 323b
000000b0: f1f4 35bc 8e8e b4bc 670d 293c 4410 bcbb
000000c0: 5de7 b83c 7b06 0c3d 9b16 efbc 21a4 56bb
000000d0: 8f85 18bd a106 943c da50 563c 9185 50bd
000000e0: f8e2 163c 7a51 14bb 1b1a ddbc 0302 403c
000000f0: 91d9 1cbb 09ae 7fbc c9c4 d6bc 9e15 e33b
