legacy_code/neural_networks/models/model_2022_06_01.onnx (onnx, 56275 bytes, 7 tensors)

sequential/dense_3/MatMul/ReadVariableOp:0 f4 [64, 1]
000000 30 58 d5 be fd df ab 3e 73 d8 0c bf 65 0b bd 3e
       -0.41668844 0.33569327 -0.55017775 0.36922756
000010 d7 09 91 3e b5 3e e3 3e 94 18 a8 bf e9 99 d4 be
       0.2832782 0.4438378 -1.3132501 -0.41523674
000020 89 bf 7d 3e e1 bc 94 3e ed 38 b3 be 8a 25 86 be
       0.24780096 0.29050353 -0.35004368 -0.26200515
000030 23 d8 b3 be ca 65 72 be aa 06 0a bf f6 fd ce 3e
       -0.35125837 -0.23671642 -0.5391642 0.40428132
000040 3d f4 07 3f eb 84 e0 3e 1c 59 cd 3e 1d 57 c9 3e
       0.53107053 0.43851408 0.40107048 0.39324275
000050 7f 0f a6 be 05 10 fd 3e 4b 23 86 3e 22 b0 e9 be
       -0.32433698 0.49426284 0.261988 -0.4564219
000060 a6 41 9a be 51 bf d9 3e 29 d4 e0 3e 6f bb 06 3f
       -0.3012821 0.42528775 0.43911865 0.5262975
000070 06 95 f1 be e7 3c b6 be 9f 27 aa be 30 5d 01 bf
       -0.47184008 -0.3559334 -0.33233353 -0.5053282
000080 fb a2 a3 3e 7c f9 9e 3e 5f 39 a8 be 16 3f 75 3e
       0.31960282 0.31049716 -0.3285627 0.23949847
000090 16 d5 89 be a4 99 96 3e 1a ab 05 3f 07 13 d7 3e
       -0.26920384 0.29414093 0.52214205 0.42006704
0000a0 d2 85 94 be df 2b 82 3e 0d c9 07 3f a9 95 a0 be
       -0.29008347 0.25424096 0.53041154 -0.31364182
0000b0 13 6c db be 0a 55 dd be ab 9c 9c be 48 a3 dd be
       -0.42855892 -0.43228942 -0.30588278 -0.43288636
0000c0 50 aa 06 bf 17 1b 27 3f 55 15 f5 be a5 4f 95 be
       -0.52603626 0.6527571 -0.47867838 -0.29162326
0000d0 8c 4d 5f 3e 5e af 78 3e eb 7b 8c 3e ff a9 a3 3e
       0.21806926 0.24285647 0.27438292 0.31965634
0000e0 cd 81 8e 3e 6b aa 81 3e 56 a3 89 3e bc cb 7e 3e
       0.27833405 0.2532533 0.26882428 0.24882406
0000f0 a5 5a da 3e 6a 56 ec be 40 aa d2 be 9b cc ec be
       0.4264728 -0.4615968 -0.41145515 -0.46249852

sequential/dense_2/MatMul/ReadVariableOp:0 f4 [64, 64]
000000 16 e8 4f bc ef a0 8a be f0 91 03 3e 76 c7 4b be
       -0.012689611 -0.27075908 0.1284864 -0.19900307
000010 5c 5e af bd f1 d2 e2 bc fe 87 d3 bc df b9 8e 3e
       -0.085629195 -0.027688475 -0.025821682 0.27876183
000020 75 8c 16 be b1 e4 d9 bd ed f2 81 3e 21 0e 42 3e
       -0.14702018 -0.106393225 0.2538065 0.18950702
000030 eb 49 02 3e f5 08 47 3e 97 35 bd bc 68 1a 62 bd
       0.1272351 0.1943701 -0.023096843 -0.055200964
000040 40 8c 42 be 24 a1 84 be cb 86 66 3d dc b1 a9 be
       -0.18998814 -0.2590419 0.056280892 -0.33143508
000050 65 4c 51 3e ea 76 f2 be 9e 40 35 3d cf f8 85 3e
       0.20439298 -0.4735635 0.044251077 0.26166388
000060 43 53 95 3e 36 40 94 be 96 aa 0e 3d 39 81 de bd
       0.29165086 -0.2895524 0.034830652 -0.10864491
000070 89 3f 1c 3e 75 0a 6c 3e 3a ce 25 bc c9 9c 85 3e
       0.15258612 0.23050864 -0.010119969 0.2609618
000080 d6 eb 25 be 12 63 41 be 00 d6 2d 3b 58 a8 28 be
       -0.16203246 -0.18885449 0.002652526 -0.16470468
000090 cd b0 1a bb 20 94 8c bc 42 45 99 bd 34 c8 1b 3d
       -0.0023603917 -0.017160475 -0.07483913 0.038032725
0000a0 19 c9 d5 3d f8 e5 16 be 62 70 66 be a6 ec 97 3e
       0.10438747 -0.14736164 -0.22503808 0.29672736
0000b0 b6 15 85 3e e4 a3 1d 3e 15 b3 de bb 58 62 52 3e
       0.25993127 0.1539455 -0.0067962506 0.20545328
0000c0 15 f5 94 3d 25 f4 94 be 9d 23 3f 3e 47 ff 76 3e
       0.07273308 -0.29092517 0.18665929 0.24120818
0000d0 a1 92 1d 3d 6d 39 14 3d 7c ed 53 be 8a 17 07 be
       0.038469914 0.036187578 -0.20696062 -0.13192573
0000e0 e6 9f 2c be 38 0d d6 3d 61 46 f7 bd 4b c2 71 be
       -0.16857871 0.1045174 -0.120739706 -0.23609273
0000f0 30 09 8a be ff 5d 30 3e 41 39 85 bc 0e b9 92 3e
       -0.26960135 0.17223357 -0.016262652 0.2865681
000100 a0 f8 17 3e b2 6e 95 be 4b d9 87 3e a1 ae 8d bd
       0.14840937 -0.29186016 0.2653297 -0.069180734
000110 dd 1d 80 bd 7d 34 23 be c2 db 91 3c 42 5e 36 3e
       -0.06255696 -0.15937991 0.017804984 0.17809394
000120 2f 3f 72 be d3 ed af bd 37 a2 de 3e ee 9d 05 3d
       -0.23656915 -0.08590283 0.43483135 0.032621317
000130 71 29 75 3e 34 9a 91 3e 1c 0e 97 3d bb c5 31 be
       0.2394159 0.2843796 0.07375738 -0.17360584
000140 f3 8a 8e be c7 2a 81 be cf ba f1 3c 6d ff 39 be
       -0.27840385 -0.2522795 0.029508023 -0.18163843
000150 ba ca 8a bc 05 96 30 be 1d 36 83 be 9d 2d 69 3e
       -0.01694237 -0.17244728 -0.25627223 0.22771306
000160 22 be 96 3e 9b d8 f1 bd 10 4f ec bd 90 66 74 bd
       0.29441935 -0.11808892 -0.115385175 -0.059668124
000170 9f 0c 95 bd 57 7b b8 3d 99 44 f9 3c 8c fb 98 bd
       -0.07277798 0.090079 0.030428218 -0.07469854
000180 da 5d de bc 47 01 71 bd e8 68 b2 3e a5 ea 5d bd
       -0.027144361 -0.05883911 0.34845662 -0.054178853
000190 42 7e 79 3e dc 07 c7 3b 01 10 9d be 79 86 11 bd
       0.2436457 0.006073935 -0.30676273 -0.035528634
0001a0 9d 23 c9 3e ba 42 08 be fa 62 75 be ff 3a 80 3e
       0.39284983 -0.13306704 -0.23963538 0.2504501
0001b0 64 a9 9e 3c 09 20 ac 3e 20 b1 65 3e d9 b0 61 3e
       0.019367881 0.3361819 0.22430849 0.22040118
0001c0 11 cf 6f 3e 1f de ce be 61 f3 c5 bd 8f 1d be 3e
       0.23418833 -0.4040384 -0.096655615 0.37131926
0001d0 c5 c8 ba 3c ff 78 ad bd 0e 95 0b be 1d f9 18 bd
       0.022800812 -0.08470344 -0.13631079 -0.037346948
0001e0 94 93 e0 bd e5 dd 36 be e5 b5 90 be ae 62 3d be
       -0.10965648 -0.17858084 -0.28263775 -0.18494675
0001f0 ff a3 10 be 86 62 72 3e 0c ec 8b 3b cf 92 9b 3e
       -0.1412506 0.23670396 0.0042700823 0.30385444
000200 c2 a8 a4 3e df de a4 be b9 73 85 3e 3c 75 8b bd
       0.32160002 -0.32201287 0.26064852 -0.0680947
000210 5d 94 82 be fd 43 2f be 1c 33 4d be 95 a2 ac 3c
       -0.25503817 -0.17115779 -0.20039028 0.021073619
000220 46 47 13 bd e1 79 8b bc 44 ef 66 3e 7d d3 4c 3e
       -0.035956644 -0.01702589 0.2255221 0.20002551
000230 be a3 1b 3d 68 a5 c6 3d 00 d6 2a 3e fd e7 52 be
       0.037997954 0.096995175 0.16683197 -0.20596309
000240 a5 97 5e bc 04 c0 07 be e1 e9 0f 3c c7 76 5c 3b
       -0.01358596 -0.13256842 0.008783788 0.0033640133
000250 fe ab 6f 3e 61 c3 c5 be b0 d2 35 be 0f 2c 80 3e
       0.23405454 -0.38625625 -0.17756152 0.25033614
000260 45 31 92 3e 74 66 c0 be 21 75 1e be 9a f0 ab be
       0.28553215 -0.37578166 -0.15474369 -0.33582002
000270 79 53 51 3e 61 cb 7b 3d 56 ff 45 3d 36 63 3f 3e
       0.20441999 0.061473254 0.04833921 0.1869019
000280 16 db 5b be 8c 23 ba be d1 85 b7 bd 4a 60 c0 be
       -0.21470293 -0.36355245 -0.0896107 -0.37573463
000290 4d 24 24 3e 2e 1c d4 3b fa 3b 05 be 8c cc 36 bd
       0.16029473 0.006473086 -0.1301116 -0.044628665
0002a0 8e 0f c2 3d 20 2a 66 3d 87 49 6e bd ba 2f 43 3d
       0.09475623 0.056192517 -0.05817559 0.047652937
0002b0 66 db 90 bd 14 f9 6a 3e 57 eb 3b 3e eb 8e 79 3e
       -0.07073097 0.22946578 0.18351494 0.24370925
0002c0 e1 17 1a 3e cc 7b c0 be 80 a2 12 be 3b 22 29 bd
       0.15048172 -0.3759445 -0.14319801 -0.04129241
0002d0 a3 63 25 3c 26 fc df bd fe dd 5e be 04 43 13 be
       0.010094556 -0.109367654 -0.21764371 -0.14381033
0002e0 03 6a f8 bd d3 36 8d be d1 92 36 be a2 de 81 be
       -0.12129595 -0.2758089 -0.17829444 -0.25365168
0002f0 7a af ce be 95 c7 36 3e 0b 57 05 3d 16 e1 12 bc
       -0.40368253 0.17849572 0.032553714 -0.0089647975
000300 f8 d4 c1 be 4a ff 83 bd 0b d5 b7 be 6f c8 d8 3b
       -0.37857795 -0.06445177 -0.35904726 0.0066156904
000310 8f 85 33 bb de 02 be 3d 20 50 f2 3e 79 99 eb 3d
       -0.002739284 0.092778906 0.47326756 0.11503882
000320 af 71 18 3e ec 79 18 ba 46 e9 f4 3c d8 c2 0b 3c
       0.14887117 -0.00058165076 0.02989639 0.008530341
000330 d0 af 0d bd 4a bc b7 bd 0d d7 25 3d 20 b2 91 3d
       -0.034591496 -0.0897146 0.04048829 0.07114053
000340 b5 a7 26 be a3 f5 44 bd 87 d1 21 3e ee 1c 56 3d
       -0.16274913 -0.04808582 0.15802585 0.052273683
000350 e7 42 2f 3d 41 a7 d2 3d 6d 3b 8b 3e c4 6b a4 be
       0.042788412 0.102858074 0.27193776 -0.3211347
000360 bc 44 d6 bd 62 c2 bb bd af 36 cd bd 99 de 05 3e
       -0.10462329 -0.09167935 -0.10020196 0.13073196
000370 ff 67 cb be 37 f0 4a be 53 13 ab be 57 7f ff 3d
       -0.3972778 -0.19818197 -0.3341318 0.1247546
000380 e3 7a a2 bc b8 a0 ff bc 79 f5 c2 be 55 fc f0 3d
       -0.019833988 -0.031204566 -0.38077906 0.117668785
000390 d0 38 d1 ba 72 3e 10 3e 90 5a 01 3e 24 8a 90 bc
       -0.0015962366 0.14086321 0.12632203 -0.017643996
0003a0 c2 00 67 be a7 5a b8 3d 90 32 8b 3c d2 c9 1a be
       -0.22558883 0.090016656 0.016991884 -0.15116051
0003b0 18 af 9e be a1 e9 54 be 60 ca 3d be 3f 0c 84 be
       -0.3099296 -0.20792247 -0.18534231 -0.25790593
0003c0 09 80 30 be d7 9a 9d bd 0b b1 ae be d7 e0 17 3c
       -0.17236342 -0.07695549 -0.34119448 0.009269915
0003d0 09 05 9e 3d a6 86 69 3e ce 75 28 3e d7 3a 43 3e
       0.07715804 0.2280527 0.16451189 0.19065414
0003e0 30 62 f4 bd e4 5b af 3d dc ad 2d 3e 78 37 92 3e
       -0.1193279 0.085624486 0.16960853 0.28557944
0003f0 89 14 46 bc d3 e2 aa be cf 86 b7 bd d3 e8 70 be
       -0.012089857 -0.33376178 -0.089612596 -0.23526315

sequential/dense_2/BiasAdd/ReadVariableOp:0 f4 [64]
000000 bb 4f c1 3d 01 ad 8c 3d 46 de dc 3d e4 b0 03 3d
       0.094390355 0.068689354 0.10784583 0.032151118
000010 c5 3e ac 3d f7 81 1f 3d 10 b6 a8 be 27 a9 54 3d
       0.0841041 0.038942304 -0.32951403 0.05191913
000020 0e 31 b2 3d 94 06 98 3d 55 1e d0 3d 9a 09 ba 3d
       0.08700763 0.0742313 0.101620354 0.090838626
000030 12 f0 f1 3d d7 f2 ef 3d 39 1f 9e 3d c0 20 37 3d
       0.11813368 0.1171624 0.07720799 0.044708967
000040 57 59 02 3e 0c d8 31 3d 5c d6 ac 3d 82 bf 83 3d
       0.12729393 0.04341893 0.08439323 0.064330116
000050 ca 8f dd 3d 27 6f 91 3d 20 0f 65 3d b5 fd ad 3d
       0.10818441 0.07101279 0.055922627 0.084956564
000060 d2 47 da 3d 1b 52 95 3d f8 10 21 3d 0c 72 98 3d
       0.1065823 0.07291051 0.039322823 0.07443628
000070 4b 2e d5 3d 14 27 ef 3d 0a 90 10 3e 5a b4 8f 3d
       0.1040922 0.116773754 0.14117447 0.07016821
000080 1d c5 46 3d 66 75 8f 3d 30 ad 07 3e 88 41 2f 3d
       0.048527826 0.07004814 0.1324966 0.042787105
000090 68 67 e8 3d d6 c7 b0 3d ac 28 9e 3d c1 2a 33 3d
       0.11347848 0.08631866 0.07722601 0.043741945
0000a0 39 41 0e 3e e9 27 ba 3d fb 49 55 3d 15 e9 e7 3d
       0.13892068 0.090896435 0.052072506 0.11323754
0000b0 6c 85 b9 3d fb 83 06 3e 9b 0c d6 3d 86 b6 c9 3d
       0.09058651 0.13136284 0.10451623 0.09849267
0000c0 be 78 66 3d 01 84 9b 3d d0 7d be 3d 52 e9 ec 3d
       0.056267492 0.07593537 0.093013406 0.1156794
0000d0 73 f1 7d 3d e5 ce 7a 3d c1 d3 d2 3d 85 c6 6c 3d
       0.061997842 0.061232466 0.10294295 0.05780651
0000e0 09 6c 8f 3d 7a b6 86 3d ae 12 20 3d 84 db c6 3d
       0.07003028 0.065777734 0.039080314 0.09709838
0000f0 cf 91 b8 3d fb 50 e7 3d 11 e5 fb 3d e3 ac ee 3d
       0.09012186 0.11294743 0.1229955 0.11654069

sequential/dense_1/MatMul/ReadVariableOp:0 f4 [64, 64]
000000 d5 fb 37 3e 22 c9 b1 3c 50 40 10 3e 0a 04 b1 bd
       0.1796716 0.021702353 0.14087033 -0.086433485
000010 af a7 6c bd 19 84 4c bc 2c 15 0f 3e 4c 04 77 3e
       -0.057777103 -0.012482666 0.1397292 0.24122733
000020 3e 21 d8 3d ff 8d 8b be 30 6d e8 bc 23 a7 62 be
       0.105532154 -0.27256772 -0.028372377 -0.2213407
000030 46 66 ef 3d 71 e5 8a be cb 2b 23 3e e8 7b 93 be
       0.11689429 -0.27128175 0.15934674 -0.2880547
000040 d2 e1 8a bc 87 90 bc 3d 8d be 91 be df f3 b2 bd
       -0.016953383 0.09207254 -0.2846569 -0.08737921
000050 b6 80 21 bc f7 52 38 be 89 e3 f8 bd fc 20 1b 3e
       -0.009857347 -0.18000399 -0.12152774 0.15149301
000060 7e 44 31 3e f3 14 65 be e8 fc 62 bd fc 13 b3 3c
       0.17311284 -0.22371273 -0.05541697 0.021860115
000070 d1 e8 21 be de c1 20 be 85 92 a4 3d d9 52 6a be
       -0.15811469 -0.15698954 0.08035759 -0.22883166
000080 6a 74 1f be 05 17 f8 bd 7f ee bb 3d 16 ab 0a 3e
       -0.15571752 -0.121137656 0.09176349 0.13541827
000090 84 4c f9 bd 36 e2 da bd d8 ca b4 3d 77 e8 87 3d
       -0.12172797 -0.106876776 0.08827752 0.06636136
0000a0 88 64 f5 bb 3f ab 55 be 04 c1 5a be fa e0 92 bd
       -0.007488791 -0.20866106 -0.21362692 -0.07171817
0000b0 d0 d4 98 bd 45 25 dc 3d 45 3f 44 be 0d 6c a3 bd
       -0.07462466 0.10749296 -0.1916476 -0.079795934
0000c0 0b 91 73 be b9 51 6f 3d b4 49 cd bc 08 0c 5a 3e
       -0.23785798 0.058427546 -0.025059558 0.21293652
0000d0 94 c7 cd 3c 1a 50 80 bb 53 1f 71 bb f2 93 4f bd
       0.02511958 -0.003915799 -0.0036792352 -0.0506782
0000e0 db c3 1c 3e 6c 37 f3 3d bc bf 9c be cc 2a a5 3d
       0.15309088 0.11875805 -0.30615032 0.080648035
0000f0 5f cd 1c 3e 35 e9 12 bd d2 f6 7c 3d 87 8a 3e bd
       0.15312718 -0.035866935 0.061758824 -0.04651883
000100 66 8d 37 be c3 d9 df bd 80 96 86 be ca 9f a7 bd
       -0.17925033 -0.109302066 -0.26286697 -0.08184774
000110 0c e1 4c 3d d3 15 91 bd ce d8 2f be a2 5b 3f be
       0.05001931 -0.07084241 -0.17172548 -0.18687299
000120 9a b8 2e 3d 22 a4 b3 3d f9 da b2 be 31 8b c7 3d
       0.04265652 0.0877154 -0.34932688 0.097433455
000130 e0 9c ab be db 2a 37 be a5 46 89 bd b4 d3 87 bd
       -0.33518124 -0.17887442 -0.067029275 -0.06632176
000140 f0 98 ca be c0 9d 01 3d 43 90 ec 3c f9 4a a1 bd
       -0.39569807 0.031644583 0.028877383 -0.07875628
000150 90 27 46 bb 32 a3 30 3d f1 24 40 bd a6 02 25 be
       -0.0030235983 0.043124385 -0.04691023 -0.16114292
000160 06 26 af bc 6e eb 16 3e da 6a a3 be ce 55 84 bd
       -0.021380436 0.14738247 -0.3191746 -0.064616784
000170 6d 86 b5 bd 4c a1 e5 bd b8 2f 50 3c 8a 05 04 be
       -0.0886353 -0.112124056 0.01270669 -0.12892738
000180 55 67 21 be 77 b0 7d 3d cf 07 90 3d 04 0a 7d bd
       -0.15762074 0.061935868 0.07032739 -0.06177713
000190 29 f7 80 3d fb 27 8d 3c 5f dc 54 bc e2 89 3b be
       0.06297142 0.017230978 -0.012991994 -0.18314317
0001a0 7a 12 8c 3d 2e a6 c3 bd a5 0b ef bc 5b 53 f1 be
       0.068394616 -0.09553181 -0.029180357 -0.47133908
0001b0 8b 20 4a be 4e 29 7b bd 58 9b 59 3d d7 43 89 3d
       -0.19738977 -0.061318688 0.053126663 0.067023925
0001c0 01 0d f2 bb f4 51 b9 bd 45 41 3d 3d 63 a2 1e be
       -0.007386804 -0.090488344 0.046204824 -0.15491633
0001d0 fe b6 a6 3c 2c 6f 23 3e 62 d5 15 b9 0a 3a 20 be
       0.02035093 0.15960377 -0.00014289239 -0.1564714
0001e0 6c 11 fe 38 d2 d5 c7 bd b1 5b 1e be 2e 25 57 3c
       0.00012114909 -0.0975758 -0.15464665 0.013131423
0001f0 46 77 69 be 84 6e be bd f9 b8 ac 3c e7 86 4d bc
       -0.22799405 -0.09298423 0.021084296 -0.01254437
000200 88 af bc bc 45 bd c5 bd 3c ef 4c be 05 9c 12 3e
       -0.023032919 -0.09655241 -0.20013136 0.14317329
000210 d3 4e d5 bd cf eb de 3b d5 88 9b be c6 d6 69 be
       -0.10415425 0.006803013 -0.30377832 -0.22835836
000220 96 95 0b be b2 ae ac bc fa 90 35 3d cb 3d 16 3e
       -0.13631281 -0.021079395 0.044327714 0.1467201
000230 81 9a 26 3e 7c 59 a1 bd ad 62 57 bd a0 a0 89 3d
       0.16269876 -0.07878396 -0.05258434 0.0672009
000240 57 4c 0a be e8 87 60 bd 6a d1 c7 3d 77 09 d3 3d
       -0.13505684 -0.05481711 0.097567394 0.1030454
000250 7d 3f 6f bc 4e 7f b2 be d9 60 87 3d e8 45 db 3d
       -0.014602539 -0.3486275 0.06610269 0.10706693
000260 21 ca 2f be e0 f6 c9 3d f2 9b 8a bd 32 83 ef 3d
       -0.1716695 0.09861541 -0.067680255 0.116949454
000270 66 eb b0 3e f4 a0 b3 3c 49 7a e5 bd c6 47 15 be
       0.34554595 0.021927334 -0.11204965 -0.1457816
000280 ac 83 48 be 05 22 53 bd 19 bf 40 3e 7c 3b c9 bd
       -0.19581479 -0.051546115 0.18822898 -0.09825799
000290 88 83 2c be 96 61 72 3e ce f3 41 3e e8 13 af 3d
       -0.1684705 0.23670039 0.1894066 0.08548719
0002a0 16 db 2f 3e 42 0e 04 3d 78 b6 9c 3e 92 64 1c bc
       0.17173418 0.03224016 0.30607963 -0.009545462
0002b0 85 63 21 3e 00 0d 8d 3d 83 81 c3 3d 21 6d e0 bd
       0.1576062 0.06887245 0.09546187 -0.10958315
0002c0 b1 3c 50 3e f7 6e 0a bd 88 89 2b be 7c e6 bc bb
       0.20335652 -0.03379723 -0.16751683 -0.0057647806
0002d0 e3 97 2f 3d bd 7c 24 3d 71 a4 49 bd 2c 4d 37 3d
       0.04286946 0.040158022 -0.04922909 0.04475133
0002e0 22 40 6d bc 69 cc 81 be f8 bc 02 be e3 0f b2 bd
       -0.0144806225 -0.25351265 -0.12767398 -0.086944364
0002f0 e7 ef 93 be b5 cb c7 bd e5 48 a4 bd 8f 5d f4 bd
       -0.28893968 -0.09755651 -0.08021716 -0.119319074
000300 76 f0 21 3d 92 05 9f 3c 80 3c 94 bc e4 11 9c 3c
       0.039535962 0.019411836 -0.018095255 0.0190515
000310 c7 8d 51 3e ae 08 55 3e bc 09 37 3e ff 36 81 3d
       0.2046424 0.20804092 0.17874807 0.06309318
000320 56 81 be 3d 65 3b 16 3e 3b ff 08 3e 8d 69 34 be
       0.093020126 0.14671095 0.13378613 -0.1761839
000330 19 fc c9 bd 72 02 1f 3e 60 7f 5f 3d 95 6b f5 3d
       -0.09862537 0.15528277 0.054564834 0.1198341
000340 fa d0 1e 3d f3 e5 5c 3e 2f e4 1c 3e b1 e4 45 3e
       0.038773514 0.21572094 0.1532142 0.1932552
000350 0d 83 9b 3d 17 7c c4 3d 6b d6 2b bd be 29 a0 3d
       0.07593355 0.09593981 -0.04195253 0.07820462
000360 47 8b 19 bd 36 5d 82 3c 19 f4 07 be 20 d4 18 be
       -0.03748634 0.015913587 -0.1327671 -0.1492467
000370 8b 65 a4 3d 59 81 d0 3c c1 cf 31 be 56 71 bc 3d
       0.0802718 0.025452303 -0.17364408 0.092013046
000380 cc 60 40 bc 25 ce 8c be e0 1e 62 3e a7 d1 c1 3d
       -0.011741828 -0.27501026 0.2208209 0.09463816
000390 0a 2a 48 be f1 4a a0 3a 43 f4 4f 3e ab e5 95 3c
       -0.19547287 0.0012229366 0.20308022 0.01829799
0003a0 df 7e 49 3d e2 db 07 3d 75 7c f5 bc 86 ca b7 3d
       0.04919326 0.03316868 -0.029966572 0.08974175
0003b0 e3 88 c3 3d ab 23 45 bd 4d 7c 4d 3e 8d db 1f bd
       0.095475934 -0.04812972 0.20066948 -0.03902774
0003c0 4a 07 8f bd 67 59 ce bc 63 39 62 3e 08 10 a5 3d
       -0.06983812 -0.025189115 0.22092204 0.08059698
0003d0 1b 00 d7 bc 4d c1 3f bd 2d 54 41 3d 1a 7c 16 3d
       -0.026245167 -0.046815205 0.047199417 0.036739446
0003e0 5a 75 87 3c 19 b9 01 3e b2 b4 fb 3d a7 0f 43 be
       0.01653545 0.12668265 0.12290324 -0.1904894
0003f0 19 5d e8 3d e0 d7 0e 3e a8 49 06 be 98 3f b4 3a
       0.11345882 0.13949537 -0.13114035 0.0013751863

sequential/dense_1/BiasAdd/ReadVariableOp:0 f4 [64]
000000 ca b7 35 3a 24 27 0c bc a9 1d 00 3d 90 b9 87 bc
       0.0006931989 -0.008554254 0.031278286 -0.016567975
000010 ce 7b bb 3c c0 4f 84 3a da 7c 08 3d b4 45 67 3d
       0.022886183 0.0010094568 0.033322193 0.05646296
000020 ab 8d c9 3c d6 45 ef bc 2b 1d 0f bc 42 c4 0a 3c
       0.024603685 -0.029208105 -0.0087349815 0.008469643
000030 69 47 9e 3b 7d 49 1d bb f0 96 26 bd 9e ec 3a bc
       0.00483029 -0.0024000101 -0.04067129 -0.011408953
000040 95 04 c6 bb 8b be 39 bc 26 7b c7 3b 07 57 05 3c
       -0.0060430267 -0.011336933 0.0060876785 0.008138425
000050 e6 38 2f bd 56 64 fc bb d2 8a 1d 3c 02 07 29 bd
       -0.042778872 -0.0077023907 0.009615617 -0.04126645
000060 01 b0 4f 3d 1b a2 bc bc 53 21 9f bc 57 86 22 3d
       0.05070496 -0.023026517 -0.01942507 0.039678898
000070 5d f0 ca 3c 16 0d 8e ba 79 4e 26 bd 27 f0 63 3a
       0.024772817 -0.001083764 -0.04060218 0.0008695148
000080 63 b4 b7 bb fc 22 bd 3c e9 d6 c6 bc ea d6 8e 3c
       -0.0056062206 0.02308797 -0.024272399 0.017436463
000090 bb cd 86 bc 96 e8 ec 3a 6d a9 29 3b b6 94 91 3c
       -0.016455522 0.0018074687 0.002588834 0.017771106
0000a0 0a ab 64 bc ad a3 e9 3c 11 a9 31 3a cf d6 9d bc
       -0.0139567945 0.02852043 0.0006777207 -0.019267468
0000b0 fe ec f5 bc 99 12 c7 3c 29 36 2d 3d bc 13 66 3c
       -0.030020233 0.02430086 0.04228798 0.014042791
0000c0 12 68 c2 3c 5e df e7 bc 9a 2c 59 bc 58 c3 f5 3c
       0.023731265 -0.028304752 -0.013255263 0.030000374
0000d0 3f 7a 12 3c 68 7f f8 3b 41 66 7e 3d 25 e6 be bb
       0.008940279 0.0075835474 0.062109236 -0.005825775
0000e0 87 07 ce bc d9 3f bd bc 9a 4d 90 3c fc 5d e9 3c
       -0.025150074 -0.023101734 0.017615128 0.028487198
0000f0 c5 72 1b 3a 6d ef de 3c ea 7b 4d bd 2e 1c aa 3d
       0.0005929883 0.027213776 -0.050167 0.08306156

sequential/dense/MatMul/ReadVariableOp:0 f4 [80, 64]
000000 4c 36 3e be 67 85 55 3f f0 8a 8d 3e a4 1c cc 3b
       -0.185754 0.8340668 0.27645063 0.006229
000010 ae ac bd be c5 d8 93 3e d4 50 25 bf af 96 bc 3d
       -0.37045807 0.2887632 -0.6457646 0.09208428
000020 ab ea 3b bf a3 50 81 be b9 40 5a bf f0 c9 43 3e
       -0.7340495 -0.25256833 -0.8525501 0.19120002
000030 01 e9 e0 3b b3 07 b0 3d 0f 8e bb 3d 10 f7 09 be
       0.0068637137 0.085952185 0.09157955 -0.13473153
000040 5a 2b 8d 3d fd 46 54 bf e5 a0 a6 3e 18 bf 51 3e
       0.06893034 -0.8292082 0.32544628 0.20483053
000050 6d ba 11 3e 5f c8 4f bf 4c 4f 9e be e3 b3 16 bf
       0.14231272 -0.8116512 -0.30919874 -0.58868235
000060 b3 be e4 be 1d 62 c9 3e 57 a0 c1 3d ab 74 dc 3d
       -0.44676742 0.39332667 0.094544105 0.1076444
000070 0c c5 66 bf 50 e4 53 3e b9 90 72 be 44 b1 83 bf
       -0.9014442 0.20692563 -0.2368802 -1.0288472
000080 9b 58 fb be 02 42 83 bf 58 5c 7a bf 11 98 5b bf
       -0.49091038 -1.0254519 -0.97797155 -0.8577891
000090 4b c9 1c 3e 62 a4 a0 bf 10 de 82 3e 05 aa 40 be
       0.15311162 -1.2550166 0.25560045 -0.18814857
0000a0 c9 65 ae be 09 00 cf 3d c0 6e 21 bf 1d b4 96 bf
       -0.3406203 0.101074286 -0.63059616 -1.1773716
0000b0 57 ee 32 bf c8 08 9d bd 87 59 0c 3f 78 94 3e be
       -0.6989493 -0.076676905 0.5482411 -0.18611324
0000c0 05 ac 00 3f a2 38 5a 3d 8c 8d b3 3d d9 9d 43 3e
       0.5026248 0.053276666 0.08767232 0.19103183
0000d0 5f 1f 0f 3f eb 89 f4 3d 47 19 95 bb 4c 74 18 bf
       0.55907243 0.11940368 -0.0045501324 -0.59552455
0000e0 98 42 dc bb 7b a2 68 be e6 6d 10 3e 98 f0 85 bf
       -0.006721806 -0.22718231 0.14104423 -1.0464048
0000f0 ff 89 70 3e 0b 24 c1 bd f9 81 86 be 36 67 21 bf
       0.23490141 -0.09430703 -0.26271036 -0.6304811
000100 63 a7 74 be 05 6b 9c 3d cd 50 93 3d d2 01 ce bc
       -0.23891978 0.076376 0.07193146 -0.025147352
000110 c6 13 a5 be a2 e4 4f be 9f 37 b2 bd 10 a6 73 3e
       -0.32241648 -0.2030206 -0.08702015 0.23793817
000120 25 b4 8a be 93 fc 44 be 0b 95 0e 3e 17 89 b1 3d
       -0.27090564 -0.19236974 0.13924043 0.08668726
000130 6e 09 fe bd 99 e0 10 3e 1c 46 5c 38 90 3a c3 bd
       -0.12404142 0.14148177 5.2517382e-05 -0.09532654
000140 8c 96 27 be 49 6b d3 3d dd 5d 62 3d 83 be 21 3c
       -0.16366023 0.103231974 0.055265296 0.009872082
000150 61 2d 24 3e 5e 1d 96 3d ab eb eb 3d a2 4c 2b be
       0.16032936 0.0732982 0.115195595 -0.16728452
000160 4c a1 ea bd f6 fa 08 be 71 df f8 3d b1 85 5a 3c
       -0.11456546 -0.13376984 0.12151993 0.013337539
000170 f4 63 ef 3d bf 5a 9d 3d e7 d2 7d bd 3e 70 63 be
       0.116889864 0.07683324 -0.06196871 -0.22210786
000180 63 98 15 be 14 1e b9 3d 85 05 9e be 34 ad 57 3d
       -0.14608912 0.0903894 -0.30863586 0.052655414
000190 e3 28 6b 3e 6f e2 80 be 5f 61 cb bd 83 f2 1a bd
       0.22964816 -0.25172755 -0.099306814 -0.037828933
0001a0 1b 78 1e 3e 80 dc 60 3e 6f 48 58 bb 2f 41 a2 be
       0.15475504 0.21959114 -0.0033002158 -0.31690356
0001b0 b4 b4 a7 bd bd 14 7e be 12 a3 75 3d 30 21 c5 3d
       -0.08188763 -0.24812599 0.05996997 0.09625471
0001c0 b7 c6 5a 3b 60 bb 00 3d 56 04 14 3e d4 21 ac bd
       0.0033382603 0.031428695 0.14454779 -0.0840489
0001d0 38 1b 9b 3d 86 d5 15 be d3 81 e7 bd 2c 78 94 3d
       0.07573551 -0.14632234 -0.11304059 0.072494835
0001e0 08 2b ff 3d c3 dc 42 bc 44 45 9d 3d 17 4a 48 3d
       0.124593794 -0.011893454 0.07679227 0.048898783
0001f0 12 6c ba 3d b1 63 f0 bd f0 d3 9a 3b 5f c5 74 be
       0.09102644 -0.117377646 0.004724972 -0.23903416
000200 a1 29 13 bd 3e 9e 67 3c fb d5 f7 bc 7e 9f 7b bd
       -0.035928372 0.014136849 -0.030253401 -0.0614314
000210 70 64 28 3c 74 2d 0e be c6 7c 62 bd 0c 95 d9 3d
       0.010277852 -0.13884526 -0.055294774 0.106241316
000220 82 aa a2 bd b4 74 a5 3c e7 5b 80 3c 42 a4 dd 3d
       -0.07942678 0.02019725 0.015668822 0.10822345
000230 20 24 33 3d 14 5b 38 3e bf b3 48 bc 5b b0 22 3d
       0.043735623 0.18003494 -0.012249886 0.039718967
000240 1a 39 2f be 0a 3d 83 bd 1e e0 75 bc a7 cb e3 bd
       -0.17111626 -0.06408127 -0.015007047 -0.11122828
000250 22 bd 95 3c 3a 26 86 bd 37 6b 9d bd 1a 03 c8 3c
       0.018278662 -0.0655026 -0.07686465 0.024415541
000260 2f 4f 4f bd 48 29 77 3c 9f a3 13 3c 1d cd 10 3e
       -0.050612625 0.015085526 0.009011178 0.14140745
000270 7b b4 15 3d ce 89 e0 3d 8d 62 3d 3d ff e0 fd 3c
       0.036549073 0.10963784 0.046236563 0.030991076
000280 2f 0a 84 ba 00 f3 b2 bc c3 12 c9 39 95 95 e6 3c
       -0.0010073836 -0.021844387 0.00038351686 0.028147498
000290 08 ad 5a bc 52 56 8b 3c c1 f5 ed bc 8e 13 97 bc
       -0.013346918 0.017008934 -0.029047849 -0.018441942
0002a0 6d af ec 3c b1 aa 05 3c 32 16 6c bd 3a 41 2a 3d
       0.028892243 0.008158372 -0.057638355 0.04156611
0002b0 5f 22 94 3d ae fb 4d bd 72 1f b4 3d b1 bf 12 bd
       0.07233118 -0.05028885 0.0879506 -0.035827342
0002c0 1b 57 19 bc 65 e4 a5 bd 01 be 64 bd d9 b8 6e bc
       -0.0093591465 -0.081002034 -0.055845264 -0.014570438
0002d0 64 c6 e6 3c 97 2c bd 3c 6f b0 da bd 31 b0 47 bd
       0.028170772 0.023092551 -0.10678183 -0.048752014
0002e0 21 6f 2f bd 00 15 fb 3d 74 34 0f be b6 cb 59 bb
       -0.04283059 0.12259865 -0.13984853 -0.0033232993
0002f0 03 3d 88 3c 10 15 8e 3d 76 17 e1 bd c5 b1 1b bb
       0.016630655 0.06937611 -0.10990803 -0.0023757082
000300 e2 16 9c c0 03 f7 88 40 91 84 86 40 7e 2b 06 40
       -4.8777933 4.280153 4.2036824 2.0964046
000310 8f 05 96 c0 2f eb ae 3f 74 0b 58 c0 13 f2 8d bf
       -4.6881785 1.3665522 -3.375699 -1.10895
000320 9a 73 89 c0 b7 fa 9e c0 38 47 1c c0 4e e6 77 40
       -4.2953615 -4.968105 -2.4418468 3.8734317
000330 11 81 c8 3f df e5 65 bf 10 34 aa 40 39 d4 2d 40
       1.5664388 -0.8980388 5.3188553 2.716078
000340 aa a7 cf 3d 73 b0 4f c0 8d c7 a6 40 dc c3 27 40
       0.10139401 -3.2451446 5.211859 2.6213293
000350 cc 72 73 40 47 57 67 c0 82 34 88 c0 b6 35 7d c0
       3.8038816 -3.614702 -4.2564096 -3.9564033
000360 02 0d 6b c0 76 94 a7 40 a1 e9 94 40 63 89 6e 40
       -3.672669 5.2368727 4.653519 3.7271354
000370 39 1c 67 c0 d2 77 8f 3e 7d 2f 59 40 1a 74 89 c0
       -3.6110976 0.28021103 3.3935235 -4.2954226
000380 d9 d5 81 c0 5b 44 6c c0 08 60 8d c0 b6 7e 78 c0
       -4.0573545 -3.691672 -4.4179726 -3.8827338
000390 fc 4f 83 40 d2 3f 89 c0 5f 72 99 40 e7 cc 73 c0
       4.1035137 -4.2890406 4.7952113 -3.8093812
0003a0 20 4d 79 40 28 b0 a8 40 25 50 31 c0 cf ed 86 c0
       3.8953323 5.2715034 -2.7705166 -4.2165294
0003b0 fe 47 9b c0 64 a9 46 40 1b 5e 90 40 65 ba 8f c0
       -4.852538 3.1040888 4.5114875 -4.4915032
0003c0 29 ab 63 40 d7 a1 98 c0 b3 63 99 40 75 08 ae 40
       3.5573218 -4.769756 4.7934203 5.4385324
0003d0 cd 25 84 c0 17 77 88 40 da fa e0 3d da 0f 68 c0
       -4.1296144 4.2645373 0.10985346 -3.6259675
0003e0 ad b2 62 be 69 62 00 c0 bd d8 87 40 5a 64 8d c0
       -0.22138472 -2.0060065 4.2452073 -4.4185
0003f0 17 e3 5b 40 65 6f 91 3e 3b df 08 c0 a8 ac 9f c0
       3.4357355 0.284053 -2.138625 -4.989826

sequential/dense/BiasAdd/ReadVariableOp:0 f4 [64]
000000 a1 ab fa bc 4b 38 3b bc 2e ae 1d bc e4 a9 ef bc
       -0.030599417 -0.0114269955 -0.009624047 -0.029255815
000010 56 5d 3f 3d 67 a6 00 bd cb 9c a3 3b c1 b2 60 3c
       0.04671987 -0.031408694 0.0049930564 0.013714493
000020 50 10 e1 bc 03 5c 17 bd 7f 2b 84 bb b0 08 7a bc
       -0.027473599 -0.036952984 -0.0040335055 -0.01526086
000030 3c 54 59 bc 60 f1 14 3d 47 2b 96 bd 58 55 8c bc
       -0.013264712 0.036363006 -0.07332473 -0.017130539
000040 c3 5a 49 bc 8b af de bc 3c a1 78 bc cc 4f 78 bd
       -0.012289706 -0.027183315 -0.01517516 -0.060622975
000050 e0 5a a0 3c 67 c7 85 3c 8b 15 83 bc 0e c2 7b bd
       0.019574583 0.016330434 -0.016001483 -0.06146436
000060 4e b5 af 3c ea 72 8e bb 9c 83 71 bd c1 9d cf 3c
       0.021448757 -0.004347195 -0.058963403 0.025343778
000070 61 20 e1 3b ac dc 13 3c 28 9a f8 3c a2 52 33 bd
       0.006870315 0.00902478 0.030346945 -0.043779977
000080 ec 48 9f bb 56 59 32 bd f1 0a 91 3b 96 96 86 bc
       -0.004860988 -0.04354223 0.004426353 -0.016429227
000090 67 50 f1 bb 62 05 c4 bc dd c7 7b 3d 95 f6 47 bb
       -0.007364321 -0.023928348 0.0614699 -0.0030511965
0000a0 bb 99 14 bd 26 87 b2 3b 81 47 d7 bc 51 55 3d 3c
       -0.03627942 0.00544824 -0.026279213 0.011555986
0000b0 3e 6d 25 3c 88 bf a0 3c 31 6f bf bc 0b c4 a1 bc
       0.010096846 0.01962258 -0.02336845 -0.0197468
0000c0 29 e5 35 3d 81 5b 49 bc 59 00 8c 3c a2 a7 a9 bb
       0.044407997 -0.012289883 0.01709001 -0.005177454
0000d0 43 e6 fb bc 84 cc 53 3c a1 d6 75 3a 66 4e 2e bb
       -0.030749446 0.012927178 0.00093779905 -0.0026597022
0000e0 a1 6b 58 bc 53 08 8b bc 29 9a 5c bd 46 db a9 bc
       -0.0132092545 -0.016971743 -0.053857956 -0.02073444
0000f0 bd 9f 07 3c 11 c2 66 3c df 71 46 3c f4 fe 40 bd
       0.008277831 0.014084355 0.01211211 -0.047118142
