legacy_code/examples/models/example.onnx (onnx, 55763 bytes, 7 tensors)

sequential/dense_3/MatMul/ReadVariableOp:0 f4 [64, 1]
00000000: b323 6c3e 79ab 023c 6de3 b23d 5651 853e
00000010: 696e 35be 0638 f4bb 82a1 253e 5c0e 933d
00000020: 1ed2 1bbe 9cce 8cbd 7b01 90bd 683d 873e
00000030: 1cf5 76be 0fe1 8cbe 2367 133c 5996 50bd
00000040: a512 e7ba e7ba 223e dab7 68bd 4ba1 7abe
00000050: d8c1 8abe 44c0 dd3d 9265 ea3b ad2b 00be
00000060: 3f60 303e ae06 4dbe 5151 66be ce7d f9bd
00000070: 6a20 bdbd 9fed 4c3e e5c9 8bbd 63d5 c53c
00000080: 7e64 413e a682 863e 9391 8cbe f04d 7e3e
00000090: 7af2 df3c 2d89 3f3e 38c8 16be 3dba 3a3e
000000a0: 5c67 093e cc4a 983e d258 98bd b21d 6a3d
000000b0: cbaa 7abe 9e68 09be 6373 023e 5a82 78be
000000c0: 4617 2b3d 1725 81be d198 84be 6598 33be
000000d0: e5a4 fc3d ddf5 f9bd 19b0 02be 3e2f 95be
000000e0: defa 6dbe 9b39 2ebe 24b7 7ebe 2029 943e
000000f0: 9997 5f3e 0d5e 44bd db73 603e 232c 803e
0.23060493 0.007975453 0.08734784 0.26038617 -0.177179 -0.0074529676 0.16174892 0.07180473
-0.15216872 -0.06875345 -0.070315324 0.26414037 -0.2411694 -0.27515456 0.008996758 -0.050924633
-0.0017629458 0.1589161 -0.05681596 -0.24475591 -0.27101016 0.108276874 0.0071532214 -0.12516661
0.17224215 -0.2002208 -0.22491957 -0.121821985 -0.09234698 0.2001252 -0.06825618 0.024149602
0.18885991 0.26271552 -0.27454814 0.24834418 0.027337302 0.18704672 -0.14724815 0.18235107
0.13418335 0.29744565 -0.07438816 0.057157226 -0.24479215 -0.13418815 0.12739329 -0.24268475
0.041770242 -0.2522361 -0.2589784 -0.17538603 0.12336139 -0.12205098 -0.12762488 -0.29137605
-0.2324023 -0.17014162 -0.2487455 0.28937626 0.21835174 -0.047941256 0.21919195 0.25033674

sequential/dense_2/MatMul/ReadVariableOp:0 f4 [64, 64]
00000000: 2992 b73c 5a2b 2e3e 9f08 af3d c57b 8b3d
00000010: d245 3e3d 967f dabd 0e8d 11be 16bb e9bd
00000020: af0b 3e3e 403c 433e 25ff f3bd 9bb6 8a3d
00000030: 7792 433e aeff 36bd aa0c 293d a53e ebbd
00000040: 0911 523e 56a7 613e db63 103c 783b 30be
00000050: c979 3bbd 2350 06be 1cb4 2dbe 0083 95bd
00000060: bd5a ee3d 6318 84bc 2113 9c3d 1fd4 7dbe
00000070: b60b 263e f1dd 51bc ed07 983d c01b 373d
00000080: 0ab3 c1bc e169 a4bb 1255 1b3e e075 9dbd
00000090: 67cc a33d fcee e6bc 888c 7dbd 4e07 fa3d
000000a0: cbf0 563e b664 233d 8004 70bd 2b6f 84bd
000000b0: baab 8f3b 087d 6dbd 260e 6d3e 0e76 453e
000000c0: 9539 853d 2c0e 45be c417 263e a1a1 97bd
000000d0: 6d5a 583d 4243 06be 4d78 4c3d 5799 d33d
000000e0: 03f4 c83d 9d12 7b3c 2a90 0abb 05ee 713d
000000f0: df75 1dbe 6d18 403e 3448 3a3d 2981 413e
00000100: 15ba c3bd f5d2 ccbd 888d b93c e042 2dbe
00000110: ac7a 4fbe f08a 9cbc 0a09 c93d fd0c 0f3e
00000120: c6ad 323e 197a 383e aef9 92bc f23f 91bd
00000130: 2512 34bd 926a a8bd 6bb7 503e 2f7e 0cbe
00000140: a154 94bb 40e7 ef3d 5a46 2dbe c200 13be
00000150: bb46 0c3e 3e53 ae3d cd3b d33d f252 63bd
00000160: e4eb 99bd 7666 c3bc 5d8c 223e 6244 f93d
00000170: 11c1 d73d b52a 49bd dedf de3c e0b3 883d
00000180: fcdb 413e 9199 1c3d e339 40be 3249 3d3e
00000190: 0393 053e b614 263e d959 873b 12b0 213e
000001a0: 9631 5dbd 619b 22be 271b 233b 8415 7dbd
000001b0: 3c71 3cbe e08f 843b 235a 213e ce77 1ebe
000001c0: 8531 2b3e 0db4 f4bd 3f89 f93d ad63 33be
000001d0: b048 ab3d d73f 993d e036 4f3e a0fd d93c
000001e0: 2ba1 c4bd 1da8 cd3d b89e ed3c c35e 4dbe
000001f0: ad46 e93d 9a9e aabd b8fb 963d c460 1dbd
00000200: 1cfc f93d 9aef e1bd 9b65 3bbe ee24 883d
00000210: 8d93 d3bc 92fb 16be 9b25 1cbe 58d3 2db9
00000220: f123 c3bc dcd1 a6bd 1976 173e 873d d3bc
00000230: ba8c 24bd 23cc 153b 1353 97bd d713 5a3e
00000240: 2d45 bbba df2f 9d3d 7efd 27be d0c6 373e
00000250: f913 03be 1638 22be 024d a23d 2bca 0cbe
00000260: 8034 d63d f058 573d e1d5 fb3b 35c0 613e
00000270: d80f f23d 8bcb 133e 5f21 273e e188 c9bc
00000280: 3754 17be 2de4 61be d47b 5f3e 9c64 88bd
00000290: fff6 0a3e ddfa 33be 286e f83d 977a 0ebe
000002a0: b16e 733c fc3c 49be 6eb6 8b3d ffdb 78bd
000002b0: 3916 1abe 3ff6 e8bd f293 1f3c 191c 0ebe
000002c0: f4d6 16be 3124 17be 76fc 323e 7d99 e63d
000002d0: 2865 263e e371 143b 2f7f 033d 647b 6c3d
000002e0: d8df 57be 8bca 523e 0102 6d3d cfe5 1c3e
000002f0: 3452 1a3d 7bea 8fbd 7b84 eabd ef20 db3d
00000300: 9a35 a03c b23d 2fbe b7ea cc3d 2eb9 61be
00000310: 17d9 a2bc 8b51 6a3c a404 593e 5153 193e
00000320: 9fe7 89bd ef9a e4ba 6a8c d83d b308 d8bc
00000330: bb3b c7bd 7e4f 8bbd d0ff 0abc 9980 3dbd
00000340: 272c b53c 4ab0 d13d b808 ed3d 16f6 fc3d
00000350: d263 f3bd 7b51 e53d f636 09bd 394c 30bd
00000360: 4595 c03d 681f 24be 88a0 80bd 7c5b 2cbe
00000370: cd16 3b3e fb3c d7ba 37f6 abbd 455e ee3d
00000380: 670b 1f3d a615 f5bd 077a 413e 2ab3 a93d
00000390: a2cc f5bd 87c7 013e fb54 b7bd 2013 0c3b
000003a0: 03c6 2c3c 6754 d3bc 86b5 b7bc 7589 f9bc
000003b0: 381b 1fbe 6570 06be d5b9 b53d 314e 1abe
000003c0: d4dc a33d a17c d93d b504 013d 0f57 f53d
000003d0: d39c 1dbe 0a4c fcbd ab32 ae3d 6485 863d
000003e0: b838 ab3d bc4d ae3d 6c89 0a3d b3f0 50be
000003f0: 856f febd dad7 cf3d 41c4 47bd 3721 1c3e
0.022408562 0.17008725 0.08546566 0.068107165 0.046453305 -0.10668866 -0.14213964 -0.11412637
0.18559144 0.19065952 -0.11913899 0.067731105 0.1909884 -0.04467743 0.041271843 -0.11486558
0.20514311 0.2203649 0.00881287 -0.17210186 -0.04577044 -0.13116507 -0.16963238 -0.07300377
0.11638401 -0.01612491 0.07620836 -0.24787949 0.16215405 -0.012809263 0.07423387 0.0447042
-0.023644943 -0.0050175046 0.1516917 -0.076884985 0.07997971 -0.028190129 -0.0619016 0.122084245
0.20990293 0.039890967 -0.05859804 -0.06466516 0.004384485 -0.057980567 0.23149928 0.19283316
0.065051235 -0.19243687 0.16220003 -0.07403875 0.05282061 -0.13111594 0.049919415 0.10331982
0.098121665 0.015324262 -0.0021143057 0.059064884 -0.15376996 0.18759318 0.045479015 0.18896927
-0.09556977 -0.10001174 0.022650495 -0.16920042 -0.2026164 -0.01910922 0.09816177 0.13969798
0.17449102 0.18015327 -0.017941322 -0.07092275 -0.043962616 -0.08223452 0.20382468 -0.1372001
-0.00452669 0.11714029 -0.16921368 -0.14355758 0.13698857 0.08511971 0.103141405 -0.055499025
-0.07515696 -0.023852568 0.15873857 0.12171246 0.10534871 -0.049112994 0.027206358 0.066749334
0.18931574 0.03823239 -0.18772082 0.18484953 0.13044362 0.16218838 0.0041305837 0.15789822
-0.054002367 -0.15879585 0.002488801 -0.061788097 -0.1840257 0.0040454715 0.1575704 -0.1547539
0.16718109 -0.119484045 0.12184381 -0.17518492 0.083634734 0.074828796 0.20235777 0.026610196
-0.09601053 0.10041831 0.029006347 -0.2005568 0.113904335 -0.08331032 0.0737223 -0.03842236
0.12206289 -0.110320285 -0.18300478 0.06647669 -0.025827194 -0.14744404 -0.1524872 -0.00016577297
-0.02382085 -0.08145496 0.14791144 -0.025786174 -0.04017327 0.002285727 -0.07388892 0.21296631
-0.0014287584 0.07675146 -0.16405293 0.17946935 -0.12800588 -0.15841708 0.07924844 -0.13748996
0.10459232 0.05257505 0.0076854085 0.22045977 0.11819428 0.14433114 0.16321324 -0.024601402
-0.14778219 -0.22059698 0.2182458 -0.06659815 0.13570784 -0.17576165 0.12130386 -0.13913952
0.014857934 -0.1965217 0.06821905 -0.06075668 -0.1504754 -0.11375093 0.009739863 -0.13877906
-0.14730436 -0.147599 0.17479119 0.11259744 0.16249526 0.002265089 0.032103714 0.057734862
-0.21081483 0.20585077 0.05786324 0.1532204 0.03767605 -0.070271455 -0.1145105 0.10699641
0.01955681 -0.17113379 0.10005706 -0.22043297 -0.019878907 0.014301668 0.21193177 0.14973189
-0.06733631 -0.0017441193 0.10573657 -0.026371336 -0.097281896 -0.06802271 -0.008483842 -0.04626522
0.02211578 0.102387026 0.115739286 0.12351625 -0.118842736 0.11197182 -0.03349968 -0.04304144
0.09403471 -0.16027606 -0.06280619 -0.16831774 0.18270417 -0.0016421372 -0.08396571 0.11639074
0.038829233 -0.1196702 0.18894206 0.08286126 -0.12001921 0.1267377 -0.089517556 0.0021373704
0.010545257 -0.025797082 -0.022425424 -0.030461052 -0.15537727 -0.13128813 0.08873335 -0.1506889
0.08001104 0.10619474 0.03149863 0.11979496 -0.15391855 -0.12319191 0.08505758 0.06568411
0.083604276 0.085109204 0.033822462 -0.2040432 -0.124236144 0.10148592 -0.048771147 0.15247045

sequential/dense_2/BiasAdd/ReadVariableOp:0 f4 [64]
00000000: 98e6 fcbb 9543 fdbb f66d 78bb 0634 f0bb
00000010: 4f05 b63b 24d4 f53a d163 193c 5221 56bc
00000020: 97c0 903c 41b2 1638 8d12 293c 8521 bf39
00000030: 6b4c 88bb 3b0f a03b 946f 5cbc d1bf fa3b
00000040: 8b67 89bb 4985 3bbc c6e9 303b 4795 0a3c
00000050: 88a6 103c c8f7 73bc ee23 97bb 4780 293c
00000060: e092 1bbc 641d 133c a9d9 853c 7a3e 203c
00000070: 5091 163c 416f 23bc 7a32 ce3b 4cad 9abb
00000080: 4cc5 61ba 622d c4bb 785c bb3b 87d0 76bb
00000090: 54f2 dabb d18d 0dbc 5b01 3c3c 6fb0 dbbb
000000a0: 589a ffbb 1694 513b 3d2d 283c a0a2 00bc
000000b0: c40b 0d3b e1f4 313c 4e46 25bc 0301 babb
000000c0: 2ce2 e2bb d539 cd3b cda7 503c 0153 6f3c
000000d0: d27c 2cbc a466 833c 03eb 363c ff44 483c
000000e0: 1ddd 9cbb f0ab 323c a5fb 4b3b 11de 0dbb
000000f0: 9a5d fbbb 46e7 873b 4961 a93c d5fd 86bb
-0.0077179186 -0.0077290037 -0.0037907339 -0.0073304204 0.005554832 0.001875524 0.009362177 -0.013069468
0.017669959 3.59288e-05 0.010319364 0.00036455333 -0.0041595004 0.004884628 -0.013454337 0.007652261
-0.0041932515 -0.011445352 0.0026994809 0.008458442 0.008828767 -0.014890619 -0.0046124374 0.010345525
-0.009495467 0.008979175 0.01633914 0.009780521 0.009189919 -0.0099752555 0.0062926384 -0.0047203656
-0.00086124684 -0.0059868554 0.0057178102 -0.0037660913 -0.00668172 -0.008639769 0.011474933 -0.006704382
-0.0078003816 0.0031979135 0.010264692 -0.007851273 0.0021521905 0.010861606 -0.010087563 -0.00567639
-0.0069239344 0.0062629976 0.012735319 0.014607192 -0.010527806 0.016040154 0.01116443 0.012223481
-0.004787101 0.010905251 0.0031125334 -0.0021647254 -0.0076710703 0.004147443 0.020676272 -0.0041196146

sequential/dense_1/MatMul/ReadVariableOp:0 f4 [64, 64]
00000000: 6fa0 453e ba53 143e ef0e 4f3e e762 0fbe
00000010: ee05 0dbe 34b3 42be ad3c 563e 74cb 44be
00000020: 6c6c 173e 1960 e1bd ee33 04be 3414 bc3d
00000030: b7c7 14bd e1a6 1f3d ea0c 6fbd d07a d33d
00000040: 05ef 393e 5339 40be b1c7 4cbe 448e 863c
00000050: 638c 24be 08f7 d1bd a3ce 263e fe1b 4e3e
00000060: 9924 2abd 178b f53d 55c3 27be a1b2 c9bd
00000070: 28be 333d f5e1 3b3e c7fb 4e3e 361a 48be
00000080: b6fd 773d b450 d6bc 7d5d 07bd e898 0cbe
00000090: b4af d13d 1124 3f3d 6be4 01bc fad2 863d
000000a0: 0d9a 3e3e f401 0cbe 013a 58be c77c 38be
000000b0: 2f43 0a3e 3bd1 3c3e c706 e93d cde0 51be
000000c0: 2057 ffbd aceb 29be 0147 983c bac3 4a3e
000000d0: c44b 3ebe b10d 9d3d 5960 1c3e 9b86 fd3d
000000e0: 8527 e93d 23fc 02be 08e0 28be 50d9 233e
000000f0: 2965 30be 8de8 4e3c 3536 c63d dee1 a93d
00000100: 2152 9d3d c6e5 f03d bc8b 213d 824a 35bb
00000110: 6320 f63d 4f2e 3a3e 6644 cf3d be77 123e
00000120: 4277 343e b0a3 a3bd 186f a23d 13d2 2cbe
00000130: 74f9 afbd 34c4 73bc 4e80 13be 1132 d8bc
00000140: 75f1 223e 7397 9bbd 8c83 123e 07f7 943d
00000150: 015b 23be b472 c83d 8462 3fbe d932 ddbc
00000160: b74e 17bb db84 82bd e6fe fbbc 1be6 b8bd
00000170: d309 8fbd 857a 03be 045f 33be 938c aabd
00000180: 90aa 98bd 8394 0abe 9739 57bd 7ffe 70bc
00000190: f9a5 a23d c093 373b 74a6 2fbe 04ad 48be
000001a0: b044 d33c 7e5b 703d 834d 633d a54c b43d
000001b0: 02de c33d 076e 51be b06f 41be 9580 09be
000001c0: 2630 2bbc b425 b9bc 9758 fe3d 3df7 ce3d
000001d0: 909d 093c 8be0 f83d 4e16 febd f8cc aabd
000001e0: bc20 0dbe cc42 34be 98f0 a63d 0eb7 dfbd
000001f0: f34c 2fbe 897f e73d a761 95bd 1125 a73d
00000200: 0e07 d73c 9215 103e 18a7 523e 66c4 613e
00000210: 47ae 12be 963a be3d c68c 28be e5ac 3dbe
00000220: a223 7fbd 1b10 f1bd 13b7 30be 517a 96bd
00000230: 569a b93d bd0e 343e 1246 7ebd fe6f fdbd
00000240: 807f ffbd 039f b43d adc9 43be 39ab 893d
00000250: 59c2 e73c 6df4 993d 6962 32be 09a9 213d
00000260: 0f4b a23d 68f7 d4bd 0b13 0ebd c21a 2cbe
00000270: 78bc f5bc 82bf fdbd e081 8e3d afa1 24be
00000280: 970f 9abd c5ca a6bd ff6e 0b3c b384 493b
00000290: 445f 6fbd d0b9 ffbd c913 12be 44a8 1c3e
000002a0: 25cb febd aae3 463e a829 c43d f3e3 23be
000002b0: 6481 033d b6f3 1fbe 8f56 2c3e 108a 16be
000002c0: 53d0 873d 6bc4 9b3c 07ec 22bc 8323 e3bd
000002d0: 4215 38be 757a 923d 8a9a eebd 725b 20bd
000002e0: e5a5 493e ca03 133e 6676 2a3e bed0 b5bd
000002f0: 5af1 27be 2f1a 783d cae6 17be 3288 483d
00000300: 7195 08be e773 183e 5647 3bbd 8a2d cbbd
00000310: 31e3 213e c8fc fc3d ff57 43be 2b43 2cbe
00000320: 2ba0 14bd 375b abbd ea29 cb3d f3f3 213e
00000330: 25e6 443e 57e7 5abe 5521 64be 41ac af3c
00000340: 89ba e53d 9638 ef3d 6c07 bd3d 4545 00be
00000350: d94b b83d c4a3 203e e119 9cbc 1822 df3d
00000360: d6ac 9c3d 5cde 133d 0d53 493e 64a0 ef3c
00000370: ad58 443e 616b c4bd ded6 d5bd 2dda 433c
00000380: a522 833d da40 923d 1b23 143e 0b6b 92bd
00000390: 1d37 3bbb 11fe b1bd f1a3 383e 95f4 cbbd
000003a0: 4b9b bcbd bd50 9a3d 1c92 37bd 8abc 973c
000003b0: fa24 a03d 6a70 4f3c 1eba 003e 3c22 e2bd
000003c0: ae4f 54be 3730 2bbd 85a3 34be ceb5 073e
000003d0: a416 063e 7ce2 abbd 80eb 0b3e f850 283e
000003e0: 6fba fabd 4e64 ba3d 0693 a13d 7c48 25be
000003f0: 7905 06be 5f47 143e 994a 11bd ffe2 bd3d
0.19299482 0.14485064 0.2022054 -0.14002572 -0.13771793 -0.19013673 0.20921583 -0.19218236
0.14787453 -0.11004657 -0.12910435 0.09183541 -0.036323275 0.038977508 -0.058361925 0.10326159
0.18157585 -0.18771867 -0.19998051 0.01642526 -0.16069178 -0.102521956 0.16289763 0.20127866
-0.04153881 0.1198942 -0.16383107 -0.09848524 0.04388252 0.18347915 0.20213233 -0.19541249
0.060544692 -0.02616153 -0.03304814 -0.13730204 0.10238591 0.046665255 -0.007927994 0.06583209
0.18613453 -0.1367262 -0.21115877 -0.18016349 0.13502191 0.1843919 0.11378246 -0.20495911
-0.1246779 -0.16593808 0.018588545 0.19801226 -0.1858359 0.07668627 0.15271129 0.123791896
0.11384491 -0.12791495 -0.16491711 0.16000867 -0.1722609 0.012628687 0.09678308 0.08295034
0.076816805 0.11762576 0.0394399 -0.0027662818 0.12017896 0.18181728 0.10120468 0.1430349
0.17623618 -0.07990205 0.07931346 -0.16877012 -0.08592501 -0.014878321 -0.14404413 -0.026391061
0.15912421 -0.07597246 0.14307994 0.07273679 -0.15952684 0.09787503 -0.18689924 -0.027001785
-0.002308769 -0.063729964 -0.030761193 -0.09028264 -0.06984296 -0.12839706 -0.17516714 -0.08327594
-0.07454407 -0.13533215 -0.052545156 -0.014709114 0.07941813 0.002801165 -0.1715334 -0.1959725
0.025789589 0.058681004 0.055493843 0.08803681 0.09563829 -0.20452128 -0.18890262 -0.13427956
-0.010448491 -0.022600986 0.12419241 0.10105751 0.008399382 0.12152203 -0.12406598 -0.08339876
-0.13782018 -0.17603606 0.08151358 -0.10923587 -0.17119198 0.11303622 -0.07294016 0.08161367
0.026248481 0.14070728 0.20571554 0.22047576 -0.14324294 0.09288518 -0.16459951 -0.18522985
-0.06228984 -0.1177065 -0.17257337 -0.07347549 0.0906264 0.17583747 -0.062078543 -0.123748764
-0.124754906 0.088193916 -0.19119902 0.06722111 0.028290914 0.07517324 -0.17420353 0.039467845
0.079244725 -0.103987515 -0.03468613 -0.16807082 -0.029997095 -0.12390043 0.069583654 -0.16077302
-0.07522505 -0.08144144 0.00851035 0.003074926 -0.05844046 -0.12486613 -0.1426536 0.15298563
-0.124410905 0.19422784 0.09578258 -0.16004924 0.03210582 -0.15620312 0.16829894 -0.14701104
0.066315316 0.019014558 -0.009943969 -0.11090758 -0.17976859 0.07152263 -0.1165057 -0.03914971
0.1969219 0.14356914 0.16646728 -0.08877705 -0.16400662 0.060571846 -0.14834133 0.04895801
-0.13338257 0.14887963 -0.045722328 -0.09920795 0.15809323 0.12352902 -0.19076537 -0.16822498
-0.03628556 -0.08367007 0.09920104 0.15815715 0.19228418 -0.21377312 -0.2227834 0.021444442
0.112172194 0.11680715 0.09229931 -0.12526424 0.08998842 0.15687472 -0.019055309 0.10895175
0.07650153 0.03610073 0.19660588 0.029251285 0.19174452 -0.095907934 -0.10441373 0.011953873
0.06403092 0.07141276 0.14466517 -0.07149323 -0.0028566786 -0.086910374 0.18031289 -0.0995876
-0.09209307 0.07534931 -0.044817075 0.01852252 0.07819553 0.012661079 0.12570998 -0.11041686
-0.2073352 -0.041794028 -0.17640503 0.13252947 0.13094574 -0.08392808 0.13664055 0.16437137
-0.12242591 0.09101163 0.078893706 -0.16140932 -0.13088025 0.14480351 -0.035471532 0.09271812

sequential/dense_1/BiasAdd/ReadVariableOp:0 f4 [64]
00000000: bd3f 443b 4ecc 32bc a132 303c 5a74 59ba
00000010: 1e7b 043c e710 23bc 3e59 e13a 0c96 593c
00000020: acac be3c 61a7 a13c 5529 d43b a0fd f63b
00000030: 26b7 ae3a 02a8 16bb 42dc 92bb 3acb afbb
00000040: d4ec 5e3c 4943 053c f350 c73b e55d 573c
00000050: 78cd acbb 292d e6ba 66e4 3ebb dffb 61bc
00000060: ade7 b5bb 4e33 a83b e040 093b 9cfa 8cbb
00000070: d5b5 023c f2da 2bbc 8350 b2bb 5613 edbb
00000080: cab9 9639 4c85 273c bde1 eb3c 2146 97ba
00000090: d3e6 87bb 0ae7 e3ba 6f60 00b8 964c f13b
000000a0: abdb 883b 9499 463b c5f7 c4bb c5c9 d5ba
000000b0: 572c 3f3c a71d 60bc 68a6 72bb 6059 46bc
000000c0: c4a5 5c3b 3898 ba3a 5e76 043c 34fb fdbb
000000d0: 45de 95bb 29b6 cfb8 3ee8 2fbc 0634 a83b
000000e0: 9c47 66bb 48bc 073b 7f9f e63b 28ea a03b
000000f0: 99f3 133a b37a 1b3c 93b7 053c 19b3 ca3b
0.0029945218 -0.010912968 0.010754258 -0.0008295231 0.008085994 -0.00995276 0.0017192734 0.013280403
0.023275696 0.019733133 0.0064746537 0.0075375587 0.0013329729 -0.0022988324 -0.004481823 -0.0053648027
0.013606269 0.008133718 0.006082648 0.013144945 -0.005273517 -0.0017561066 -0.0029127835 -0.013792961
-0.0055512995 0.005133069 0.002094321 -0.004302336 0.007977922 -0.010489212 -0.0054417267 -0.007234971
0.00028748653 0.010224652 0.028794164 -0.0011541286 -0.0041473894 -0.0017387581 -3.060739e-05 0.007363866
0.004176577 0.0030303942 -0.0060109817 -0.0016310742 0.011668286 -0.013678945 -0.0037025455 -0.01210627
0.003366814 0.0014236039 0.008084862 -0.007750893 -0.0045736157 -9.904459e-05 -0.010736523 0.005133155
-0.0035137897 0.002071159 0.0070380564 0.004910726 0.0005643904 0.009489703 0.008161443 0.006185901

sequential/dense/MatMul/ReadVariableOp:0 f4 [78, 64]
00000000: ab5a d93d 37c1 483e 3efe 08be 3956 ae3d
00000010: 6b7c eabd c3c9 253d 201a 293d 1cfd d6bd
00000020: 261c b1bd a1ca 68be 592a 1fbd bb63 263d
00000030: 80b4 00be 944b ca3d 1a54 8a3d 01e3 05be
00000040: 29a4 b93d 13f8 d43b aa44 2dbe d4c6 1dbe
00000050: 969e 19be 17d2 59bd 9f1d 793c 00ea f63c
00000060: 765d 7abe c3ba c23d e1e6 2fbe cf8c 8f3d
00000070: 2420 4ebd bb5b 3fbd 0a8d 36bd 6d58 b8bd
00000080: 406a 23bd 039e fcbc eba0 993d 54de 1ebd
00000090: 7785 febd 61f1 26be 73be babd 303c cb3d
000000a0: ac1d 68bd 65d7 1e3e 5d3c 453b e427 4bbe
000000b0: 6aab 37be 3635 a1bd 5ba0 0d3e f37e aabd
000000c0: 531a f13c b17f b93c 6173 53be 6a50 fa3d
000000d0: 68bf 18be 93c7 49be 70f2 f3bd 6fd3 143e
000000e0: ab1d 1cbe f086 283d 2c10 19bd d617 c93d
000000f0: 14a7 9c3d f0f8 f23d 0a5d 89bd e68e c83c
00000100: 7ad1 283d aa78 76bc a43f 003d d432 96bc
00000110: 3d9f c93d 664c 52be 732a febd a0ad 463c
00000120: 68f1 33be d123 ce3b 3c00 cfbd b50d 51be
00000130: 4873 27be 3e7a 08be cded 9c3c 8133 30bb
00000140: c8fe 6d3c b45c 0fbc 3d91 8e3d e740 853d
00000150: ded4 83bd ed04 003e 84a1 3b3e ced1 a0bb
00000160: 7cdc 293e cf9d 95bd af53 b63d 14b0 f43d
00000170: 15ed e3bd 3ecf 1dbe 042a 14be d8ae 7abd
00000180: ea6b 073d 2f7f 35be 83f5 ae3c 0a0d 40bd
00000190: 7ef8 f23d dd9c 79bd 65de 213d fe57 08be
000001a0: 7c0e a5bd a98c 693d ddf8 2d3d dabb c63d
000001b0: 30a5 f4bd e429 44be 5afa 2c3e e5fa 093e
000001c0: b7e7 513e 6498 a83c 8379 97bd 29f2 003e
000001d0: 6ea0 3abe d984 0cbe f07d 30be 910b c43d
000001e0: 0689 e23d e392 babd a806 32be 3725 4e3d
000001f0: ef6e 3a3e 2c2f c53d 5a8a b3bd d77a 0fbd
00000200: b452 053e ca15 c6bd 9042 fe3d 85b2 ec3c
00000210: be75 203e 30a3 37be 07bc 9abc e77c 07be
00000220: 63f1 503d 507d 11bd 87a9 4abe 1d31 193d
00000230: a39e ee3d 94c3 e33d b7aa 30be 9500 a0bd
00000240: f56e 7abd 555f c53d 2eb3 3a3e 927c 1f3d
00000250: d2c1 223e 6799 263e 27dd 27be 405b e73d
00000260: 9d67 553d 3e31 e7bd d4ff 213e 5335 e8bd
00000270: 8815 e9bd ef8f 4d3d c6f0 c33d 4899 0e3d
00000280: 01a8 98bd 70cb 183c a439 de3c f11a 093e
00000290: c353 45bd 21aa 3c3e f032 dbbd 3bc6 41bd
000002a0: 9ba6 9abd 8265 253e e2d4 79bd 6272 31be
000002b0: bf17 30be 4475 e33d 9c4f ae3d 6ac4 df3d
000002c0: 2ae7 68bd 0f58 38be 118c 463d d14c 46bd
000002d0: f743 cd3d d6f6 003d d86e ab3c 11d4 07be
000002e0: 9c64 d7bd e437 513d b5a0 863d ea20 e8bd
000002f0: f5d8 733d af84 013e bd05 c43d 20e9 343e
00000300: 9606 2c3e 078a a0bd 38fc 58bd ec56 c8bd
00000310: 58c6 483e 424a 13be f1a2 e2bc 0f98 1e3e
00000320: dd20 d13d 681a 0ebd 49c8 0cbe 6dd2 453e
00000330: 2ef9 123e ec49 ba3c 5bf8 173e 726c 4d3e
00000340: 6ad9 623c f9bc cbbd 4745 dabd 90c8 28be
00000350: 2046 61be dffa 88bd 9a61 1bbe 2916 2bbe
00000360: d7bc 3fbc 5faa 07be 78e1 49be 1943 1c3c
00000370: 74cf 61be f9ee 4ebe 3d16 0d3e 5c6f 71b9
00000380: f28c 613c d4dc 993b 6c23 193e 903a debd
00000390: 306a 00be 8b41 1a3d 1773 c73c d4f9 533e
000003a0: 0d05 073d 2102 8e3c 1e98 eebd e14e dcbd
000003b0: def1 01be a8ee c03b 6707 1f3e d853 0cbe
000003c0: 126f afbd 3a9e 133e aee0 933d 2281 09bd
000003d0: 603d 19be 9662 0cbd 4800 de3c cc22 413e
000003e0: 521c 253d 876e 563e e5a9 3cbd 67e9 ba3d
000003f0: 850a 4ebd 3f06 0d3e c3fe 763d 9592 4abe
0.10612997 0.19604956 -0.13378236 0.085125394 -0.11449512 0.040475618 0.04128468 -0.104974955
-0.08647947 -0.22733547 -0.038858745 0.040622454 -0.12568855 0.09877697 0.06754322 -0.13074876
0.09064514 0.0064992993 -0.16920725 -0.15407878 -0.15001902 -0.053178873 0.015204816 0.030140877
-0.24449715 0.09508278 -0.17177917 0.07009279 -0.05032362 -0.04671834 -0.0445681 -0.09001241
-0.03989625 -0.030837065 0.07501396 -0.038786247 -0.124278 -0.16303016 -0.091183566 0.09923589
-0.056668922 0.15511854 0.0030095794 -0.19839436 -0.17936483 -0.07871477 0.13830702 -0.08324995
0.029431498 0.022643896 -0.20649482 0.12222369 -0.14916766 -0.19705038 -0.11911476 0.1453378
-0.15245692 0.04114431 -0.03736894 0.098189995 0.07649055 0.11863887 -0.06707199 0.024482202
0.041215397 -0.015043417 0.031310692 -0.018334784 0.098448254 -0.20536956 -0.1241044 0.012126356
-0.17572558 0.0062908907 -0.101074666 -0.20415385 -0.1635257 -0.13327882 0.019156361 -0.0026886167
0.014526077 -0.0087501295 0.06961296 0.0650652 -0.064370856 0.12501879 0.18323332 -0.004907823
0.16588014 -0.0730549 0.0890268 0.11947647 -0.11129204 -0.15411088 -0.14469153 -0.0612019
0.0330619 -0.17724298 0.021357303 -0.046887435 0.118638024 -0.060940612 0.039518733 -0.13314816
-0.08059403 0.05701891 0.042473663 0.097037986 -0.119455695 -0.19156605 0.16892377 0.13474615
0.20498548 0.020580478 -0.073962234 0.12592377 -0.18225262 -0.13722552 -0.17235541 0.095725186
0.110612914 -0.09110048 -0.17385352 0.05032846 0.1820638 0.09628138 -0.08766623 -0.03502926
0.1301983 -0.09672125 0.124150395 0.028893718 0.15669915 -0.17933345 -0.018888487 -0.1323124
0.051011454 -0.035519898 -0.19791232 0.037400354 0.11651351 0.11121288 -0.17252623 -0.07812611
-0.061140973 0.09637324 0.18232414 0.03893716 0.15894249 0.16269456 -0.16392957 0.112967014
0.052100766 -0.11288689 0.15820247 -0.11338296 -0.1138106 0.050186094 0.09567408 0.03481415
-0.07453919 0.009325847 0.027127095 0.13389184 -0.048175585 0.18424274 -0.10703075 -0.047308188
-0.07551309 0.16152003 -0.060994036 -0.1732879 -0.17196558 0.11106351 0.08511278 0.10926135
-0.05686108 -0.18002342 0.04847342 -0.0484131 0.10022729 0.0314854 0.020926878 -0.1326449
-0.105172366 0.051078692 0.06573621 -0.11334403 0.05953308 0.12648271 0.09571407 0.17667055
0.16799387 -0.078388266 -0.05297491 -0.09782204 0.19606912 -0.14383796 -0.027665587 0.15487693
0.10211346 -0.03469315 -0.13748278 0.19318552 0.14352867 0.022740327 0.14840834 0.200609
0.013845781 -0.09948153 -0.10657745 -0.16482759 -0.21999407 -0.06688475 -0.15173951 -0.16707672
-0.011702738 -0.13248585 -0.19714916 0.009537482 -0.22051793 -0.20208348 0.13778014 -0.00023025036
0.013766514 0.004695514 0.14954919 -0.10851014 -0.12540507 0.037660163 0.024346871 0.2070077
0.0329638 0.017335 -0.11650108 -0.107572325 -0.12689921 0.005887825 0.15530168 -0.13703859
-0.08566107 0.14415827 0.072205886 -0.033570416 -0.14964819 -0.034273706 0.027099743 0.1886093
0.04031021 0.209406 -0.04606046 0.09126549 -0.050303 0.13771914 0.060301553 -0.19782479

sequential/dense/BiasAdd/ReadVariableOp:0 f4 [64]
00000000: 82d6 953c 701b b03c c060 cc3b 6a54 3d3b
00000010: 2b0c c3ba 570c 963b 4636 2e3b 60c6 02bc
00000020: c679 ec3a 6233 623b c4f8 403b 86fb a9bb
00000030: 8126 1d3b bf53 d4bb 402b a7ba e1cf cebb
00000040: 8484 873c 8043 d5bb 1482 323c 9d8b 2ebc
00000050: 3a1a 0f3c b1a2 02bc 3c04 26bc 0a20 0e3b
00000060: 1b29 253c 3717 49bc f1e1 e33b 8c38 e93b
00000070: 9043 6c3b 3533 793c 945f 27bb ee8d 273c
00000080: af77 853a 1892 b3bb 079f 9c37 0c0c fb3b
00000090: 7a96 3cbc fb09 943b 0a82 f5bb acea deba
000000a0: 110d 463b 1834 09bc eff5 813c 0000 0000
000000b0: a6ad 4c3c 3e34 0c3b 9f51 11bc 7683 2bbc
000000c0: 366b b83b 050c 4cbb eb67 09bb 404f ebb9
000000d0: 887f 8c3b ede3 ccbb 0000 0000 e0c1 8438
000000e0: 561d 1ebc fc32 83ba ad8c 9e3b 8d3a bcba
000000f0: 3f5d 4aba 3c53 313b 8ec1 ca3a 6a0e 41bc
0.018290762 0.021497458 0.0062371194 0.0028889426 -0.0014880946 0.0045791077 0.0026582642 -0.007981867
0.0018041662 0.003451549 0.002944515 -0.0051874546 0.002397925 -0.00647971 -0.0012753978 -0.006311402
0.01654268 -0.006508291 0.010895271 -0.010653404 0.00873428 -0.007973359 -0.0101328455 0.0021686577
0.010080601 -0.012273601 0.0069544245 0.0071173366 0.0036051013 0.015209963 -0.0025539147 0.01022671
0.0010182763 -0.005480062 1.8670702e-05 0.007661348 -0.011510486 0.0045177913 -0.0074923085 -0.0017007194
0.003022019 -0.0083742365 0.01586434 0.0 0.012492573 0.0021393443 -0.008869558 -0.010468354
0.005628015 -0.0031135094 -0.002096648 -0.0004488174 0.004287664 -0.006252757 0.0 6.3303625e-05
-0.009650549 -0.0010009701 0.004838547 -0.0014360711 -0.0007719583 0.0027057668 0.0015469061 -0.011783222
